config/policy_1.pt (torch, 786952 bytes, 8 tensors)

weight f4 [512, 54]
000000 1b 90 ea be 47 52 9f 3e 4e fe c2 3d 2e 57 31 3e
       -0.4581307 0.3111746 0.09521161 0.17318413
000010 45 a2 01 3f 3d f4 36 3d c1 0f 74 be d8 9b 5a be
       0.5063823 0.044666518 -0.23834135 -0.21348512
000020 bb 30 73 3e 3a a6 48 3c fa f6 4e be 40 b5 81 3c
       0.23749058 0.012246663 -0.20211402 0.015833497
000030 f1 a7 41 3e d6 84 8f 3d e1 d4 46 be 87 43 14 3e
       0.18911721 0.07007758 -0.19417144 0.14478885
000040 fb 69 8c 3e 20 f8 4b bd 34 23 84 bd 07 42 28 3d
       0.27424607 -0.049797177 -0.06452027 0.041078594
000050 86 1f dc 3e 75 f5 b5 be 28 ea ad 3e 08 1b 1f 3e
       0.429928 -0.3553883 0.3396771 0.15537655
000060 4c e6 9e 3e 36 10 4e 3e 72 fa 40 be 9d 5b a9 3e
       0.31035078 0.20123371 -0.18845537 0.33077708
000070 a3 0a 87 3d e1 ee bb bd 7d ea 0b bf 04 a0 80 3d
       0.06593826 -0.09176422 -0.54654676 0.062805206
000080 98 ba de 3e 4c c4 e0 bd 38 d4 a2 bc 68 44 12 3d
       0.43501735 -0.10974941 -0.019876584 0.03570977
000090 9a 4f d2 bd c8 76 a1 3b 35 d4 36 bb a0 b8 00 bd
       -0.10269089 0.00492749 -0.0027897481 -0.031426072
0000a0 dc de cd 3b cc dc 97 3c bd b1 08 be a1 f4 18 3c
       0.0062826704 0.018537901 -0.13349052 0.009335668
0000b0 fc 16 91 3b 78 92 ab 3c b7 08 97 3c 21 af 72 bd
       0.004427789 0.020943865 0.018436773 -0.059249047
0000c0 dd 9b 82 bd a5 0b 7e bd f0 8c d2 3c f3 b4 bf bd
       -0.06377385 -0.062022824 0.02570197 -0.09360685
0000d0 72 04 07 3e 30 e0 14 be 4f 23 8a 3e 93 75 e9 3c
       0.1318529 -0.14538646 0.26980063 0.028498447
0000e0 ab 4d 46 3e 3f 7c e0 bb 56 50 22 bf 0a 49 27 be
       0.19365565 -0.006850749 -0.6340383 -0.16336456
0000f0 23 a9 fb 3d 8b 91 56 be 11 f7 32 bd e8 a7 79 3d
       0.1228812 -0.20953958 -0.043692652 0.060951144
000100 54 56 54 be 75 bc 94 3e 64 00 a7 bd 16 65 b1 be
       -0.20736057 0.2905003 -0.081543714 -0.34647435
000110 4a fc 4b 3e 35 d0 2e 3e 89 02 35 be bf 5d b4 be
       0.1992046 0.17071612 -0.17676748 -0.35227773
000120 52 88 6a 3e fc 73 88 3e 8a 7c 00 3c ef 22 b6 3e
       0.22903565 0.2665099 0.007842192 0.35573527
000130 fd 1e a6 be 2f 37 3b 3f eb 7a bf 3e 7b 98 8a be
       -0.32445517 0.7313108 0.37398466 -0.27069458
000140 e3 43 15 bc 6f bd d2 bd 12 c0 62 be 45 45 f2 3d
       -0.009110424 -0.10290038 -0.22143582 0.11829618
000150 7c 3f 48 be ab 22 a8 bd d4 85 96 3e f2 6c 68 3d
       -0.19555467 -0.082097374 0.29398978 0.056744523
000160 3f 2e f2 3d 0a 11 2e be 2f 50 81 3d e4 b1 93 bd
       0.11825227 -0.16998687 0.06314122 -0.07211664
000170 39 cf 22 3c be 2d d6 bd 44 3d 8e bd 1b a5 8c bc
       0.009937101 -0.104579434 -0.06945279 -0.017168572
000180 4c 15 13 bd cd da 98 3c eb f5 14 be 47 4e 98 3d
       -0.035908982 0.01865902 -0.14546935 0.07436805
000190 09 5b 2c bc 4b 59 5d 3d 38 92 c5 bd c2 7c aa bd
       -0.010519751 0.054040235 -0.0964703 -0.08324577
0001a0 80 c4 9e 3d 4f 20 cd bd 43 27 54 3d 94 b7 85 bc
       0.07752323 -0.10015928 0.051795255 -0.016322888
0001b0 31 81 68 3d e4 4d ef 3e b4 97 3a 3e ef ef c0 3d
       0.05676383 0.46739113 0.18221933 0.09420764
0001c0 2c 74 91 3c 24 40 df bd f2 a6 c4 bd 60 24 e7 bc
       0.01775559 -0.10900906 -0.09602155 -0.028215587
0001d0 91 84 c3 3d fc 41 93 be 49 a7 36 be d6 01 49 3e
       0.095467694 -0.2876128 -0.17837252 0.19629607
0001e0 8f 1c c3 bd 96 f7 a7 3d b6 02 d7 3e 9f da f2 be
       -0.095269315 0.0820152 0.41994256 -0.4743242
0001f0 3a ac c3 be c7 16 6f 3e 54 1b 21 3f 53 3e a3 3e
       -0.38217336 0.23348533 0.62932324 0.31883487
000200 03 98 c7 bd 59 0a 3c bd b7 4b c0 3d a3 1f 84 bb
       -0.09745791 -0.045908306 0.093894415 -0.0040320917
000210 63 bf 3f bc 9d 8e f7 3d 44 c1 61 3e 3c f0 a7 bd
       -0.011703345 0.12087748 0.22046381 -0.08200118
000220 e8 94 17 3e f5 34 d5 3e 1f 59 b9 3e 29 42 bc be
       0.14802897 0.41641966 0.36200806 -0.36769226
000230 f6 46 1e be 2f c6 af bd 6e 95 f9 3b 36 3e b5 bb
       -0.15456757 -0.085827224 0.0076166904 -0.0055310978
000240 c0 eb 9d bd 30 0e 0b 3b 96 c1 0b be bc ce 48 3d
       -0.07710981 0.0021218173 -0.13648066 0.049025282
000250 02 3a 56 3d 45 8e 8e bc 03 67 5a bb 63 c5 03 bb
       0.052301414 -0.017401824 -0.003332556 -0.0020106665
000260 1e a9 32 3d f8 b9 61 3d 16 14 98 bd d6 1b 6d 3d
       0.043618314 0.055108994 -0.07425706 0.057887875
000270 ca c5 48 bc 62 43 1c be 6c ce 81 3c d9 ed ba bd
       -0.012254188 -0.1526008 0.0158455 -0.09127397
000280 60 b3 0f bd 88 d1 b4 bd e8 61 05 bf 1b 17 9a 3e
       -0.035083175 -0.088290274 -0.5210252 0.30095753
000290 d4 ae 00 3f a5 45 9b 3d 42 39 af 3d 5e cc 37 3e
       0.50266767 0.07581643 0.08555843 0.17949054
0002a0 79 b6 0d bd ed 94 87 bd 5e bd 78 bf 1f a9 88 3d
       -0.034597848 -0.06620202 -0.9716395 0.06672882
0002b0 65 81 a2 be bd b5 06 be 57 3d 57 bd 82 69 b5 3d
       -0.31739345 -0.13155265 -0.052548733 0.08858015
0002c0 a5 72 6a be da 9e 74 be a2 95 93 bd 40 9a 5a bd
       -0.22895296 -0.23888722 -0.072062746 -0.05336976
0002d0 e9 f4 ae 3e 26 4b 7b 3d 58 ff a9 bd 30 c8 2d be
       0.34171227 0.061350964 -0.08300656 -0.16970897
0002e0 7b a1 6f 3e 32 0d 26 be 65 a9 26 be 92 39 5b bd
       0.23401444 -0.16215971 -0.16275556 -0.0535217
0002f0 d5 a9 16 be 59 e8 16 3d c1 30 0a be 45 36 69 ba
       -0.14713223 0.036842678 -0.1349516 -0.00088963314
000300 8a 15 63 bd ff 7b 16 bd 66 79 22 3c c3 26 95 bd
       -0.055440463 -0.036739346 0.009916639 -0.07282784
000310 a1 21 da bc 9b 92 04 3d d9 d7 95 bd 8d 2b c4 3d
       -0.026627364 0.032366376 -0.0731656 0.09578619
000320 be c2 df bc b8 df 93 bd 91 c3 9b 3c a3 d9 a7 bc
       -0.02731454 -0.07220405 0.019014152 -0.02048952
000330 9c 6c 82 bd 2f f0 b9 3c b5 92 ea bc ef 1b 35 bd
       -0.06368372 0.022697536 -0.028634408 -0.044216093
000340 7f 01 8c 3d fc 66 39 bd 9c 1e 78 3d 51 e2 19 be
       0.06836223 -0.04526423 0.060576066 -0.15027739
000350 cd aa 18 3d ba ab e5 3d 0e 3f f1 3c c9 2d 79 3d
       0.037272263 0.11214395 0.029449012 0.06083468
000360 4f d6 15 3e aa ca 7c 3e 2b 77 91 be 2c 06 5b be
       0.14632533 0.24686685 -0.2841123 -0.21389073
000370 08 39 77 bf 00 c7 09 bd c2 1a 26 3e 4d 25 85 be
       -0.965714 -0.033637047 0.16221145 -0.2600502
000380 94 3e c3 3e a8 2a 20 3e 14 7a eb 3d fb e1 00 3f
       0.3813368 0.15641272 0.11497894 0.5034482
000390 a1 2e 77 bc db 84 1e be f8 ba d9 3e 23 1b 20 be
       -0.015086801 -0.15480368 0.42525458 -0.15635352
0003a0 f5 99 3f bd 62 e7 97 3e 96 42 c5 bd 06 d0 a1 bd
       -0.046777684 0.2966872 -0.09631841 -0.079010054
0003b0 c8 db dc bd 6e e5 a2 be 6d 61 78 3e 2c c0 cf 3e
       -0.107841074 -0.31815666 0.24255915 0.40576303
0003c0 91 0d 07 3f 23 e5 fe bd e7 9a a8 bd c6 8b 1a 3e
       0.52755076 -0.12446048 -0.0823267 0.15092382
0003d0 c1 90 2e bd d5 05 a9 bd fa b8 8d be da d0 ad bb
       -0.042618517 -0.082530655 -0.27680188 -0.005304438
0003e0 53 71 25 3e 1e 82 9f bd ed ec d8 3d c0 cb 4d be
       0.16156511 -0.0778849 0.10592065 -0.20097256
0003f0 89 59 ee 3d 5f aa fe 3c 6e 3d 20 3d 88 37 1b 3c
       0.11638171 0.031087099 0.039121084 0.009473689

bias f4 [512]
000000 e1 cd b4 3b f4 87 3b 3d 0b d2 70 3d 05 eb 12 3d
       0.0055177067 0.045783952 0.058794063 0.035868663
000010 b6 01 a6 3d fb 04 9f 3d 8b 6c a3 3d 42 14 f3 bd
       0.08105795 0.07764622 0.07979687 -0.11869098
000020 f5 5f 7f 3c 49 f2 82 3d 24 4e 32 be 15 ae 4f be
       0.015586843 0.063938685 -0.17412621 -0.20281251
000030 65 fd 9b 3d d3 32 6a bd 4e 17 1f be c6 13 98 3c
       0.076166905 -0.057177376 -0.15536234 0.018564116
000040 e2 f6 c7 3d fa b2 ac 3d 8c 20 db 3d 92 6d c8 bd
       0.09763886 0.084325746 0.10699567 -0.09786524
000050 fd 13 c8 3d d3 e3 b6 bd dc 74 0b be 4a 2b 90 3d
       0.097694375 -0.08930173 -0.13618797 0.07039507
000060 9b 15 03 be 9c 4b f6 3c 97 a3 83 3d d3 c5 23 3e
       -0.1280121 0.03006535 0.06427687 0.15993433
000070 94 4f 3f 3c c4 f0 1c bd 0c 41 c1 3c 65 a7 99 3c
       0.011676688 -0.03831555 0.023590587 0.018756578
000080 73 55 4e bd 0b c7 6f be 88 88 04 3e 05 6d 77 bb
       -0.05037446 -0.23415773 0.12942708 -0.003775419
000090 f8 50 a6 bd aa 84 ab bd b8 15 1b 3d b3 c8 30 be
       -0.08120912 -0.08374913 0.03786251 -0.1726406
0000a0 fe 84 fe 3c aa da 8a 3c 59 57 36 be f9 9e 5e 3d
       0.031069275 0.01694997 -0.17806758 0.054350827
0000b0 e8 f1 14 bd 68 b2 6f bc 66 d4 12 be c5 c4 24 bd
       -0.036363512 -0.014629938 -0.14338836 -0.040226717
0000c0 22 59 ff 3b c1 c6 67 bd 96 fe 9f 3c 49 da 4a 3a
       0.007792608 -0.05658603 0.019530576 0.00077382155
0000d0 59 09 ca 3d 6d 6f 62 3c 42 b8 85 3c 70 c1 b4 3d
       0.09865064 0.013820511 0.016323213 0.08825958
0000e0 14 98 13 3d 6f 59 03 be 67 ce 49 bc a2 27 52 be
       0.036033705 -0.12827085 -0.012317277 -0.20522931
0000f0 47 a0 21 bd 10 83 b1 3d b1 37 01 be ef 23 db 3d
       -0.039459493 0.08667576 -0.12618901 0.10700213
000100 32 49 fa 3c 59 3d 4d 3c d8 03 20 be d8 cc b6 bd
       0.03055248 0.012526833 -0.15626466 -0.089257896
000110 f8 0d 0e 3e b4 b7 02 3e f3 f6 63 bd d6 d9 d3 bd
       0.13872516 0.1276539 -0.05565543 -0.10344283
000120 51 b7 dd bd f1 50 f8 3d 40 de b5 bd 20 b7 e9 bd
       -0.108259805 0.12124813 -0.088802814 -0.114118814
000130 45 70 0e bd ba 75 fc 3d ec 6a 53 3d c6 48 08 3e
       -0.034775037 0.12327142 0.05161564 0.13309011
000140 cb d0 63 3d 08 57 fd 3c aa 3a 23 bc 3e 0b 26 bd
       0.055619042 0.030925289 -0.009962717 -0.040538065
000150 4b a0 30 3d 13 01 1b bd e7 a8 39 bd d3 d8 fe bc
       0.043121617 -0.03784282 -0.045327093 -0.03110925
000160 79 08 f1 3c d1 03 1e be c4 f2 0d bd 72 d2 dd 3d
       0.029422985 -0.15431143 -0.034655347 0.10831155
000170 f9 67 f1 bc 80 2f 8d bd 57 3e 70 3d cf eb 14 3d
       -0.029468523 -0.068938255 0.058653202 0.036357697
000180 ad 77 54 3d 9e 93 56 bd df 13 05 bd 54 66 49 be
       0.051871944 -0.052386872 -0.032489654 -0.19667941
000190 de d4 c3 3d d1 ab c4 bd c6 51 b9 bd 54 c6 14 3d
       0.095620856 -0.09603084 -0.090488 0.036321953
0001a0 ca 45 94 3d 66 03 34 be b6 5d d7 bd 09 c9 1e 3e
       0.07239874 -0.17579421 -0.10515921 0.15506376
0001b0 28 35 30 bd c3 94 4e 3d 65 75 12 be a9 4a 8d bc
       -0.043019444 0.05043484 -0.14302595 -0.017247515
0001c0 31 5d 5d 3c 85 6f 8c bd 11 89 1d bd e4 b6 ed 3d
       0.013510988 -0.06857208 -0.038460795 0.11607149
0001d0 e0 67 38 bd 7d 22 85 3d 1b 9b df 38 bd d6 46 3d
       -0.045020938 0.06500719 0.00010662359 0.048544634
0001e0 36 77 a4 bc 01 71 42 3d e1 c3 de bd 7e fd 18 3d
       -0.020076375 0.04747105 -0.10877205 0.037351124
0001f0 82 18 12 bd ac 7f 47 bc da 02 16 be ec 7e 18 be
       -0.035667904 -0.012176435 -0.14649525 -0.14892167
000200 89 a1 aa bd 79 30 c4 bd 41 90 1c be e7 2b b2 3d
       -0.08331592 -0.09579558 -0.15289403 0.0869978
000210 9c dd 8b bd f3 54 fe bc 98 54 c9 3d c5 6c 08 be
       -0.06829378 -0.031046366 0.09830588 -0.13322742
000220 68 bb be bd 1f fd 7d bb 9c 40 46 3d 16 56 7b bd
       -0.09313089 -0.0038755608 0.04840146 -0.061361395
000230 f3 ef 17 bd d0 43 a6 3d 32 28 3e bd 07 6d be bc
       -0.037094068 0.08118403 -0.046425052 -0.023245348
000240 a6 74 6f bd 43 31 a7 3c f8 71 f9 bd c4 b3 28 3d
       -0.058460854 0.020409232 -0.12179941 0.041187063
000250 5b ba 2a 3d e4 c0 59 3c e4 66 f3 3c af df b1 3c
       0.04168163 0.013290618 0.029712148 0.021713106
000260 93 b3 a9 bb a7 8a c9 3c fc 67 f3 bd 79 13 83 3d
       -0.0051788776 0.024602247 -0.11885068 0.064001985
000270 59 fd f9 bd 1a 0e fd 3c c0 b9 21 bd 93 72 d8 bd
       -0.12206525 0.030890513 -0.039483786 -0.10568728
000280 a1 5b 07 3d 46 57 45 bb 05 2d 83 3c 68 65 8a 3d
       0.03304637 -0.0030111833 0.016012678 0.06757623
000290 84 85 be bc f8 fb 82 3b db b3 b8 bc 57 a9 a0 3d
       -0.023257025 0.003997322 -0.0225467 0.07844799
0002a0 43 a3 8d bd df fc e6 3b 0f e3 1c bc 84 19 4f bd
       -0.06915905 0.0070491876 -0.009575619 -0.050561443
0002b0 50 9b 1c bc f9 3a 7e 3d b3 c0 39 3d 4e 2d 28 bd
       -0.009558514 0.06206796 0.045349788 -0.04105883
0002c0 f5 4b e5 bd 57 7b 70 3d c9 19 30 3c bd 4f 7a bd
       -0.11196128 0.058711376 0.010748335 -0.0611112
0002d0 fb 84 31 be 4a c0 14 be f3 79 bb 3d fc 6f b4 bc
       -0.17335884 -0.14526477 0.09154119 -0.022026055
0002e0 e2 27 32 be db 09 03 be 9c a2 bd 3c 15 7b 9f bb
       -0.17398027 -0.12796728 0.023148827 -0.0048669674
0002f0 c6 cf 1c be 3f 22 da bc da 66 f2 bd b7 bc 5a 3d
       -0.15313634 -0.026627658 -0.11836024 0.05340263
000300 a2 eb 8c 3d dc 92 f3 bd 93 17 6f 3d 28 a1 09 be
       0.06880881 -0.118932456 0.05837209 -0.13440382
000310 ea fd bf bd 8d aa 82 bd c5 93 8e bd a0 f4 3b 3b
       -0.09374602 -0.06380186 -0.069617786 0.0028679743
000320 fd 34 d9 bd 00 8b 05 3d fb 44 d1 bd 42 66 cc 3d
       -0.1060581 0.032603264 -0.10218235 0.09980442
000330 f7 e6 f2 bd 2a 81 ce 3d a4 bc 8c bd a2 40 1c be
       -0.11860459 0.1008323 -0.06871918 -0.1525903
000340 c2 6b c7 3d 67 30 bb bb 1c 32 1b bc c2 76 cd 3d
       0.0973735 -0.005712557 -0.009472396 0.10032417
000350 5f b3 84 bd 12 cd 93 3d e9 70 84 bd db 54 3c be
       -0.06479525 0.072168484 -0.064668484 -0.18391745
000360 82 80 1a 3d 9c 78 8f bd ad b1 31 bd f7 ca b4 bd
       0.03772021 -0.07005426 -0.043382335 -0.08827775
000370 ff 08 c4 3d 39 1b b3 bd f1 be 60 bc d5 39 98 3d
       0.09572028 -0.08745427 -0.013717399 0.074329056
000380 b5 3f 0b be 54 32 18 bd 61 ff 8b 3d 43 3e 17 3a
       -0.13598521 -0.03715737 0.06835819 0.00057694706
000390 ea 78 b2 bb d3 7a c3 bd 53 08 8b bd 8e e0 03 3e
       -0.005446543 -0.09544911 -0.06788697 0.1287863
0003a0 b2 f2 cb bd bb 7d a3 bc d9 13 5a 3c d1 b5 00 be
       -0.099584 -0.019957414 0.013310396 -0.12569357
0003b0 19 f9 e4 bc 6b b3 b5 bd ce ca e0 3d 9c 89 5d 3c
       -0.02795081 -0.08872112 0.10976182 0.013521578
0003c0 cd cf b9 bd e8 c0 db bd a6 d1 c6 bd a4 52 b3 bd
       -0.09072838 -0.10730153 -0.09707956 -0.08755997
0003d0 2b f9 d9 bc 20 d2 bb bd d2 4d 1e 3d 1e 11 9f 3c
       -0.02660807 -0.091709375 0.038648434 0.019417342
0003e0 17 bd 1b bd da 8d 0a be a5 56 9e bd 82 3e 56 3d
       -0.038022127 -0.13530675 -0.0773137 0.052305706
0003f0 d0 bd ee 3d 23 79 97 3d f4 d7 14 be 57 03 1f bd
       0.116572976 0.07396152 -0.14535505 -0.038821544

weight f4 [256, 512]
000000 a4 a4 34 bd 60 7c 73 3c aa 7a e2 3c fc f8 1f be
       -0.044102326 0.014861196 0.027646381 -0.15622324
000010 5d a3 8b 3d f5 2d 1f be 41 5c de 3b b9 1f 78 bd
       0.068182684 -0.15544875 0.0067859 -0.060577128
000020 7a ba 33 be bc 2a c6 3c e7 2c 96 3d b5 63 0a bd
       -0.17551604 0.0241903 0.07332783 -0.033786494
000030 fd d1 97 3d 6a 88 72 bd e6 83 4f bc 4f 3e c9 3d
       0.07413099 -0.059212126 -0.012665724 0.098263375
000040 9c 7b f9 3c e1 37 87 bd 80 7d 73 bd 74 2c 2a be
       0.03045445 -0.06602455 -0.059445858 -0.1661852
000050 18 a7 a8 bd e8 31 b1 bc 27 07 03 bd ed 54 2e 3e
       -0.082349956 -0.021630242 -0.031989243 0.17024584
000060 e2 4d aa 3d cf 58 cc bc 09 a9 2c 3d b2 8e 09 bd
       0.08315636 -0.024944691 0.042153392 -0.03358335
000070 4c 3f a4 3d e5 45 3d 3d 66 95 38 bc eb 9b 1f bc
       0.080198854 0.046209235 -0.011266088 -0.009741764
000080 ae ff e0 bd 3d 76 10 3e 5d 52 3d bd 60 25 26 bc
       -0.10986267 0.14107604 -0.046221126 -0.010140747
000090 1c 56 b8 bc ee 95 73 bd 1d 88 aa 3d 55 35 c9 3d
       -0.022501998 -0.059469156 0.08326743 0.098246254
0000a0 07 e5 21 3d b1 fc bd bd 75 0a 7a bb cb 0e 0b 3d
       0.039525058 -0.09276713 -0.0038153206 0.033949655
0000b0 80 d0 04 be 05 c7 a6 bc 9b 8a 9c bc e2 05 d4 3d
       -0.12970161 -0.020358572 -0.019109061 0.103526846
0000c0 ba dc 77 bd e2 58 ec 3c f6 13 fe 3d a7 12 14 bd
       -0.060513236 0.028850976 0.12406151 -0.0361506
0000d0 c2 75 5c be 4b e2 bf bc ca 16 93 3d 29 44 c0 bd
       -0.21529296 -0.023423335 0.07182081 -0.093880005
0000e0 30 a4 7a 3e 9b a7 15 3e 23 fa 5c 3c be c7 f9 bc
       0.24476695 0.14614718 0.013487372 -0.030490752
0000f0 95 23 50 3d 9c 53 64 3e d6 c7 17 be 10 d5 e8 3c
       0.050815184 0.2229752 -0.14822325 0.028421909
000100 12 7d c0 3b 8e 20 c9 3d 92 32 0c be e1 90 ae 3c
       0.0058742845 0.098206624 -0.13691166 0.021309318
000110 6c 9c 4c 3d 51 d8 83 bd 40 8d a2 bd 06 27 47 bc
       0.049953863 -0.064377435 -0.079370975 -0.0121553
000120 9c a2 74 3e d8 e9 b0 3c c8 b9 3c 3e d0 46 d6 be
       0.23890156 0.02159588 0.18430245 -0.418509
000130 f3 f2 ed 3b 2a 6f 9a bd 50 d2 60 be 07 f0 3c 3c
       0.007261628 -0.07540734 -0.21955228 0.011531836
000140 26 98 e2 3d 5b bf f9 3c 38 be 55 be 96 5c 46 3e
       0.11064176 0.030486753 -0.20873344 0.19371256
000150 0d 86 42 3d 9f 4a 45 3e 04 71 98 3b fd bb b6 3d
       0.047491122 0.19266747 0.0046521444 0.08922575
000160 eb 6d 3e 3d da e7 60 3d 07 4f 87 bd 07 bd fc 3d
       0.046491545 0.05490861 -0.0660687 0.123407416
000170 8f d5 8d 3d 24 6e 88 3d 42 80 48 bd c5 d0 95 3d
       0.06925499 0.06661633 -0.04895044 0.0731521
000180 2d fa ab bd e3 cf ce 3d 98 14 1c 3e 3e 46 8f 3d
       -0.083973266 0.10098245 0.15242231 0.069958195
000190 3c 61 cb 3d c2 fc 7f bd 48 8f 17 3d 0b b1 9e 3d
       0.09930655 -0.062496908 0.037001878 0.07748612
0001a0 c3 75 12 be 90 e7 5f bc f4 19 e1 3c 86 3f 0f 3c
       -0.14302735 -0.013666049 0.027478196 0.0087431725
0001b0 16 8a f2 3d bb 61 7b 3d 00 39 91 bc 25 74 23 bd
       0.11842744 0.0613725 -0.017727375 -0.039905686
0001c0 e1 87 21 3e d1 b6 ef 3d 9e 93 b9 3c 2d 3e 85 bd
       0.1577449 0.11704791 0.022653397 -0.06506
0001d0 ed c4 47 bb 4d 5f 50 3e 06 2e ed 3b 15 df af bd
       -0.0030482367 0.20348854 0.0072381524 -0.085874714
0001e0 21 63 a6 bc ac 8e 81 bd d4 f3 f3 3d 9c 22 00 be
       -0.02031094 -0.063260406 0.11911741 -0.12513202
0001f0 7c 56 39 bd 55 6b 49 bd 86 96 8e 3d 0a f2 57 bd
       -0.045248494 -0.049174625 0.06962304 -0.05272106
000200 bf db 7a 3e f0 58 25 3d 64 37 6f 3d 35 4c c3 3d
       0.24497889 0.04036802 0.058402434 0.0953602
000210 ed 4a b7 3d 7a 95 2a be c9 ac 0a 3d d9 d4 b9 bd
       0.08949838 -0.16658583 0.033856187 -0.090738006
000220 3a 0c 8b 3d 6b 63 df bd d8 a8 03 be 22 72 02 3d
       0.067894414 -0.10907634 -0.12857378 0.031847127
000230 9f 7a 8c bd 2f 9b 0b bd 51 df 24 b9 b7 14 bd 3d
       -0.068593256 -0.03408354 -0.0001572345 0.09232467
000240 5b 25 51 3e dd 8d f6 bd fc a5 07 be 60 86 ba 3c
       0.20424406 -0.12038777 -0.13246912 0.022769153
000250 9a 45 f0 3c 41 a1 a0 bd 9a 65 08 3e 65 ad ab 3d
       0.029330064 -0.07843257 0.13320008 0.08382682
000260 69 38 4c 3d 64 2e 0c bc 87 d1 58 3e dd c5 0d be
       0.049858484 -0.008555982 0.21173678 -0.1384501
000270 84 7f 4a 3e 15 06 8a 3d 8c 85 c1 bd 78 38 95 3d
       0.19775206 0.06739441 -0.094493 0.07286161
000280 53 14 16 bd 95 2f 44 3e 76 e0 23 bc e0 9a 93 3d
       -0.036640476 0.19158776 -0.010002246 0.072072744
000290 ad 09 d1 bd 23 56 60 be 01 34 f2 3d df 10 87 3d
       -0.10206924 -0.21907859 0.11826325 0.06595015
0002a0 2d 2d 91 bd e1 b5 43 3d 70 42 d8 3d e1 77 4e bc
       -0.07088695 0.047780875 0.10559547 -0.012601824
0002b0 7b c6 4d bd 60 8e 28 bd b6 21 c3 bd 61 40 1d 3c
       -0.050238114 -0.041151404 -0.09527914 0.009597869
0002c0 24 8b ea 3c 0a eb a9 bd f4 32 18 bd 2e ee 90 bd
       0.0286308 -0.08296783 -0.037157968 -0.07076679
0002d0 3f 09 5c 3e 73 d0 f2 3d 8b 16 4e be 2e 3b c3 bd
       0.21487902 0.11856165 -0.20125787 -0.09532772
0002e0 43 07 13 3e 1a 3c a3 bd 71 5b 60 3c d2 bf 78 3d
       0.14358239 -0.07970448 0.013693676 0.06072981
0002f0 a8 6c cd 3d 90 cf e0 3d 2d 75 00 be 44 7f 31 bb
       0.1003049 0.109770894 -0.12544699 -0.0027083913
000300 f3 53 5b bc 94 23 3e bd ef 7e d0 3d 00 4a e4 3d
       -0.013386714 -0.04642065 0.10180461 0.11146927
000310 dc e9 8d 3d 23 c6 5c 3d b0 e7 b0 bb 36 05 f1 3d
       0.06929371 0.053899895 -0.005398713 0.11768572
000320 ef 45 cd 3d b7 83 c4 3d 3e b1 60 3e f2 54 af 3c
       0.100231044 0.09595435 0.21942613 0.02140281
000330 95 52 12 3e 26 74 dd 3d c0 f3 9f 3d d3 58 76 3d
       0.14289315 0.10813169 0.078101635 0.060143303
000340 b6 5f 73 bd cc 56 a0 bd bf 53 b4 3d d0 fc b3 bd
       -0.05941745 -0.07829055 0.08805036 -0.087884545
000350 ff d0 0b 3e fb 33 28 bc 3a eb dc 3c 8c 58 c2 bd
       0.13653944 -0.010266299 0.026967634 -0.09489545
000360 99 cd ee bd 7a 90 b2 3d 8a a6 91 bd ef 4b 5e be
       -0.116603084 0.08718963 -0.07111843 -0.21708654
000370 f8 25 f2 3d ff 5b 61 3c 26 db 8b 3d 87 9a 0e 3d
       0.11823648 0.013754844 0.068289086 0.034815338
000380 50 9f 6d 3e a3 e9 40 3e 8f fb ae 3c 52 3e f6 bd
       0.23205304 0.18839125 0.021360187 -0.120236054
000390 12 26 a3 bd 88 14 11 be dd 9f 2d 3e 1f 9a a9 bd
       -0.07966246 -0.14167988 0.16955514 -0.082813494
0003a0 58 61 88 3d c4 a2 a4 3d d3 3b 01 be 7c d6 45 3e
       0.06659192 0.080388576 -0.12620477 0.193201
0003b0 17 a1 a8 bb c6 59 70 bd 0f a6 c3 3d 9f 7c fe 3d
       -0.0051461565 -0.058679365 0.095531575 0.12426113
0003c0 8a 75 1e 3e 3b b6 95 3c bf f2 72 be dd 87 9e 3c
       0.15474525 0.01827537 -0.23725413 0.019351894
0003d0 43 63 b5 3c d1 bc 91 3d 0d 0a 95 be f8 48 f0 3c
       0.022142058 0.07116092 -0.2910923 0.02933167
0003e0 5d 07 42 bc 3b b9 cc bc 2d 74 31 3d c8 c6 5f 3d
       -0.011842576 -0.024990669 0.043323684 0.054632932
0003f0 16 57 85 bd 78 cd cf bd 3d 06 a3 3d e5 11 8f 3c
       -0.06510751 -0.10146612 0.07960174 0.017464587

bias f4 [256]
000000 7d 4a 21 bc 68 b5 1b be c4 0c 94 bd 4a 33 9a bd
       -0.00984442 -0.1520592 -0.07228997 -0.07529314
000010 14 2c 0f bd d6 86 89 bd 0b 91 db bd 36 d0 1e be
       -0.034954146 -0.06715171 -0.10721024 -0.15509114
000020 a7 c5 05 bd c3 b4 33 3c 0f 02 49 bd 58 13 60 be
       -0.0326592 0.01096839 -0.04907423 -0.21882379
000030 ef 1d c9 bd 0c 12 fc bd 84 55 73 3c 4a 02 21 bd
       -0.098201625 -0.1230813 0.0148519315 -0.039308824
000040 d7 8d a3 bd 6e 92 ff bb 13 17 91 bd a8 28 b7 bd
       -0.07986038 -0.007799438 -0.07084479 -0.089433014
000050 f9 2c b6 bd 59 7b 37 3d d1 f3 76 bc 63 ec 8f bd
       -0.088952966 0.044795368 -0.015072779 -0.07027509
000060 51 0b 14 be 11 e1 b9 bc 61 f9 e5 bd 3c f0 dc 3c
       -0.14457442 -0.022690328 -0.11229206 0.026970021
000070 7e 01 34 bc 3d 8d e7 bd 52 93 aa bb 73 da 33 bd
       -0.010986684 -0.11306236 -0.00520555 -0.0439095
000080 3b 5d d0 bd 00 0f 32 bd 03 62 2c be 63 74 31 bd
       -0.10174032 -0.043471336 -0.16834264 -0.043323886
000090 86 e8 70 bd 52 9e 31 3c de 56 db bd 43 33 9e bd
       -0.0588155 0.010840969 -0.10709928 -0.07724621
0000a0 ee eb 77 be d9 ca f0 bd 09 a7 00 be 62 51 99 bd
       -0.24211094 -0.1175744 -0.12563719 -0.07486226
0000b0 74 dc cb bd 61 90 74 bd 46 1c 31 3c 2d 02 c5 bd
       -0.099541575 -0.059708003 0.010809964 -0.096195556
0000c0 db ad 24 bd f6 50 d6 bd 28 30 c7 bd 9d c7 90 bd
       -0.040204864 -0.10464661 -0.09725982 -0.07069323
0000d0 c3 57 18 be 7a b0 21 bd 8f c5 4d bd 27 3e 63 3c
       -0.14877228 -0.03947494 -0.050237235 0.013869799
0000e0 6f 12 86 bd 10 b0 9a bd aa 5d 0b be b5 73 e1 bd
       -0.06546485 -0.075531125 -0.13609949 -0.110083975
0000f0 b8 21 46 bd f6 5e 91 bd c9 57 a0 bd ab 9e 25 be
       -0.048372 -0.070981905 -0.07829244 -0.16173808
000100 09 80 e0 bd b2 45 85 3c 70 5b d7 bd 2b e1 01 bd
       -0.10961921 0.016268585 -0.10515487 -0.031708878
000110 26 8d c1 bd 42 b5 00 3c bc 54 69 bd 36 8d 87 bc
       -0.0945075 0.007855715 -0.056965575 -0.016546827
000120 a4 a4 39 bd 50 b6 3b be 71 b8 38 be 18 da e4 bd
       -0.04532303 -0.18331265 -0.18039109 -0.111744106
000130 71 a1 96 bd bd 68 64 3d 83 fd ff bd 0f 2c 68 be
       -0.07355011 0.05576395 -0.124995254 -0.22673057
000140 39 c0 ba bd 72 b9 b4 3d 4f 9a 52 bc 18 76 9c 3c
       -0.09118695 0.088244334 -0.012854173 0.01909928
000150 f8 6e 0f be 10 e3 bc 3c 90 0b 76 bd fe 1e bb bd
       -0.14007175 0.02305749 -0.06006962 -0.09136771
000160 af b5 0c be 3c 76 4b be 81 d4 fe bd 7a 64 38 be
       -0.13741182 -0.19869322 -0.12442876 -0.18007079
000170 9a 54 44 bd 3d ee 31 bd 3d d6 aa 3b 2c b2 4a be
       -0.047932245 -0.043440092 0.0052135275 -0.1979453
000180 3a 92 9d bd e6 41 04 3d 48 63 d5 bd 0b 47 39 3b
       -0.07693906 0.03228941 -0.10419327 0.0028271105
000190 e9 4b a5 bd 45 0a b9 bd fb 3a 55 be 22 48 40 bd
       -0.08071119 -0.09035162 -0.2082328 -0.04694379
0001a0 cb 2e fd bd 82 80 86 3c 41 73 bf 3c 04 8e fd bb
       -0.12362441 0.0164187 0.023370387 -0.007737877
0001b0 d4 fb ba bd 97 e4 76 bd 94 d7 18 bd 36 0c ab bd
       -0.09130064 -0.060276594 -0.037314966 -0.083519384
0001c0 5b cb d2 bd 5f 01 c7 bd dd 9a 80 bd 85 85 8c be
       -0.10292693 -0.097170584 -0.06279538 -0.27445617
0001d0 8b 51 a5 bd c5 ec 1f be f3 08 04 3d 23 77 8b bd
       -0.08072194 -0.15617664 0.032235097 -0.06809833
0001e0 c7 2d 89 3c b3 66 e9 bd 1b b0 af be 8d bf 62 3c
       0.016745461 -0.113965414 -0.34314045 0.013839615
0001f0 6f 43 7f bd b1 0a 17 bd 76 75 4f 3d 42 b9 cb 3c
       -0.06232017 -0.03687543 0.05064913 0.024868611
000200 b1 f4 a1 bd b5 44 c1 bd a6 ff 4b bc b5 19 e3 bd
       -0.07907999 -0.09436933 -0.012451088 -0.110888876
000210 26 63 4a be 8d 9b 12 be 21 d2 41 3b b7 ee 9e bc
       -0.19764385 -0.1431715 0.002957471 -0.019400937
000220 67 57 9d bd 44 d8 97 bd 38 67 b7 ba 8f dc ce bd
       -0.07682686 -0.07414296 -0.0013992554 -0.10100662
000230 4a 0d 74 3c 7e c7 b9 bd 69 36 f2 bd c2 80 6a bd
       0.0148957465 -0.09071253 -0.11826784 -0.0572517
000240 bb 28 8b bd 25 c6 20 be 91 2e c4 bd c1 38 a1 bc
       -0.06794878 -0.15700586 -0.09579194 -0.019680383
000250 aa 7a 34 bd 9c 39 e8 bd 07 af 6d bd 7c 4e 8c bd
       -0.044062294 -0.11339113 -0.058028247 -0.06850907
000260 52 34 bc bd 59 21 b1 3b 4b 79 60 3d 6f ed 2e be
       -0.09189667 0.0054055867 0.054803174 -0.17082761
000270 f4 06 b5 bd 2c 00 30 bd 97 39 42 be 5d 48 a5 bd
       -0.08839217 -0.042968914 -0.18967281 -0.08070443
000280 ea c1 0f bd 66 65 74 bd a3 10 e8 bd e6 1a 62 bd
       -0.03509704 -0.059667014 -0.11331298 -0.055201434
000290 6d 33 3a be 65 f8 d7 bd 0e a2 3d be d6 ec c4 bd
       -0.1818368 -0.10545424 -0.1851885 -0.09615485
0002a0 72 c7 46 3d ea 45 f0 bd 5c 13 83 bd 3c 03 e1 bd
       0.04853005 -0.11732085 -0.06400177 -0.10986945
0002b0 63 60 96 3b 82 48 d8 bd 7a 21 84 bd a2 de 0c bd
       0.004589127 -0.10560705 -0.06451698 -0.034392007
0002c0 20 19 82 bd 1c 5b 25 be dc 37 cf bd 0f cd e6 bd
       -0.063524485 -0.16148037 -0.10118076 -0.112695806
0002d0 36 7b d7 bd d2 ed 10 be b9 66 be 3d c0 a1 ff 3c
       -0.105215475 -0.14153221 0.092969365 0.031205058
0002e0 ba cb 34 bd 70 6c e1 3d 75 cf 02 be 71 3a 45 be
       -0.0441396 0.11007011 -0.12774451 -0.19260575
0002f0 7b d0 a2 bd c8 3d 7c bc cd f8 39 bd 4a f9 80 bc
       -0.07949921 -0.015395589 -0.04540329 -0.01574387
000300 55 81 e8 bd a3 80 1a be a2 3a dd bd da aa 68 bd
       -0.11352793 -0.15088134 -0.10802199 -0.05680356
000310 9e 85 c2 bd e2 b9 b3 bd cf 48 ee bc 2b 56 57 bd
       -0.09498142 -0.08775689 -0.029087452 -0.05257241
000320 0a f0 33 be 67 8c c4 bd 5a 37 1b be fe 47 18 be
       -0.17572036 -0.09597092 -0.15157834 -0.14871213
000330 d0 03 fc bd 35 73 2c be d8 b7 16 be e1 b7 5f be
       -0.12305415 -0.16840823 -0.14718568 -0.21847488
000340 db e2 8f bc 91 8d ee bd 72 1a a8 bd 2a 22 23 be
       -0.017564228 -0.116480954 -0.08208169 -0.15931001
000350 60 26 86 3c 42 4b d0 bd 40 2d c2 bd 37 6a b2 bd
       0.01637572 -0.10170604 -0.09481287 -0.08711665
000360 08 a7 95 be 04 dd 81 bc 1d 48 d7 3d 7f e8 32 bd
       -0.29228997 -0.015852459 0.105118014 -0.043678757
000370 b2 13 8a bd 6b ff a5 3b 8d c0 8c bd 3a b9 2c bc
       -0.06742038 0.0050658486 -0.06872664 -0.010542208
000380 96 bc 88 3b b3 46 e6 bd 70 ae 29 bd c3 0e dc bd
       0.004172872 -0.112439536 -0.041426122 -0.10745003
000390 68 0d 3c 3d 31 4a 27 be cf 79 fc bd 43 45 46 be
       0.045911223 -0.16336896 -0.12327921 -0.19362359
0003a0 24 80 d0 bd 1c 8e fc bd 67 3d 38 be 0b 1b 1a be
       -0.10180691 -0.12331793 -0.17992173 -0.15049379
0003b0 43 3e 28 bc b0 34 75 bd 90 94 77 be 46 fb 07 bd
       -0.010268751 -0.0598647 -0.24177766 -0.033198617
0003c0 e4 54 f8 bc a7 a0 5b bd 52 6d 2e be 08 ed 6e be
       -0.030313917 -0.053620007 -0.1703389 -0.23332608
0003d0 99 16 f4 bd 1d 8a a7 bd 21 6c 27 be 24 36 02 be
       -0.11918373 -0.0818064 -0.16349842 -0.12715966
0003e0 17 37 d9 bc f0 24 df bd 40 58 5e bd 15 04 9d bd
       -0.026515527 -0.10895717 -0.05428338 -0.07666794
0003f0 d8 99 a3 bb ed 2a 52 be c4 e0 ec bd 34 de 63 bc
       -0.004992705 -0.20524187 -0.11566308 -0.013907958

weight f4 [128, 256]
000000 6b 7b 85 bd 57 8a df 3d 96 9e ca 3d a0 7c 48 3d
       -0.06517681 0.10915058 0.09893529 0.048946977
000010 52 bb 08 be 1c c8 e6 3d e9 dd 53 bd 09 29 0d bd
       -0.13352707 0.112686366 -0.051725302 -0.034462962
000020 62 f6 04 be 7e eb 6e bc 15 9e 95 3d e6 38 17 3e
       -0.12984613 -0.014582513 0.073055424 0.14767799
000030 1f ab a9 bc bf 7b 28 3d f4 ac 85 3d ec 75 ba 3c
       -0.02071148 0.04113364 0.06527129 0.022761308
000040 2c db 37 bc cf 6e 0f 3d f3 db 6d 3d f0 00 dd 3c
       -0.011221688 0.035017785 0.058071088 0.026977986
000050 96 85 f2 3d 6b 62 b9 bd c0 ee dd 3d b3 5c 0b 3e
       0.11841886 -0.09051975 0.108365536 0.1360958
000060 79 a3 a4 3d 8e 62 6c bc b6 31 da 3d b9 4d 50 bc
       0.080389924 -0.014427794 0.10654013 -0.012713843
000070 cb bc a0 bd c1 83 6e 38 5d a2 01 3c c9 0d 2d 3e
       -0.078485094 5.6866327e-05 0.007912246 0.1689979
000080 1d 61 3d 3c 23 da 3e bd 62 fa 3b bd f6 0e fb bb
       0.011558798 -0.04659475 -0.04589308 -0.0076616956
000090 a6 4c 36 bd 91 ca 92 3d ab 5b 4b bd 04 7b d7 bc
       -0.04450669 0.07167543 -0.04964797 -0.026303776
0000a0 b5 78 fd 3b b9 a0 de 3d b2 0f 9d bc f1 97 ad bb
       0.0077353367 0.10870499 -0.019172523 -0.005297654
0000b0 5a 40 68 bd f2 72 01 bd 8c 29 bf bd e8 37 a7 bd
       -0.056701995 -0.03160376 -0.09334096 -0.0816496
0000c0 ac 5e e7 bc 7f 96 08 3d 09 1f 0d 3d bc 75 9e bd
       -0.028243385 0.03334665 0.034453426 -0.077373
0000d0 b6 43 24 be d5 81 51 bc bc 63 be 3d 69 fa 40 3d
       -0.16041455 -0.012787302 0.092963666 0.04711381
0000e0 61 5e 09 3d c4 60 28 be 22 59 82 bd 6e b3 06 be
       0.033537272 -0.16443163 -0.06364657 -0.13154384
0000f0 b6 7d 6a 3c 86 55 0a be a7 5b 6c 3d 46 53 9b 3d
       0.014312198 -0.13509187 0.057704594 0.075842425
000100 2c 8a d5 bd 3c b6 8c 3b da 31 ec bd 96 e1 37 3d
       -0.10426745 0.004294185 -0.11532946 0.04489287
000110 ee 1f 97 3d 24 e1 6a bd 50 fe 97 bc 29 fd 0d be
       0.07379137 -0.057343617 -0.018553883 -0.13866104
000120 fe be ad 3d 64 94 fe 3b 58 41 b3 bc 36 65 e5 3c
       0.084836945 0.0077691544 -0.021881744 0.028002363
000130 4f 97 48 be 89 90 b3 3b 53 07 04 bd 10 0b d6 3d
       -0.1958897 0.0054798764 -0.032233547 0.10451329
000140 44 96 d3 bc 2a f2 4f be b9 9b aa bd 82 92 9b 3d
       -0.025828488 -0.20307222 -0.08330483 0.075963035
000150 21 fc 11 bd dc 72 8b 3d 3d 6a 3f bc db 34 7b 3d
       -0.03564084 0.06809017 -0.011683044 0.061329704
000160 10 ff 80 bc 3f 4e 27 bd 77 81 49 bd f7 3c 00 be
       -0.015746623 -0.040846106 -0.049195733 -0.12523256
000170 d2 c0 73 3c 58 d5 ec bc d0 0e e9 3d 0b ea a0 3d
       0.014877515 -0.028910324 0.113797784 0.0785714
000180 f1 a2 bc bd 25 7c 9f bd 39 7c 06 bc 22 fd 00 3d
       -0.09210766 -0.077873506 -0.008208328 0.031491406
000190 30 a1 25 3d b2 2e 6a bb 78 79 6f 3c be 20 62 3c
       0.040436924 -0.00357334 0.014616363 0.013801752
0001a0 d3 7c 13 3d ed 1e 9b 3d f1 35 a0 bd 7a 7a 9f bd
       0.036007714 0.07574258 -0.078227885 -0.077870324
0001b0 88 23 a2 bc f9 7c 87 3a 98 f4 3d bd 31 23 01 be
       -0.019792333 0.0010336927 -0.04637584 -0.1261108
0001c0 ad 7b 2f be b4 d4 e5 bd dd b2 15 3d ca 2b 8f 3d
       -0.17137022 -0.112222105 0.03654753 0.06990774
0001d0 86 10 8e 3d bc 01 5e bd 4e e4 e7 bd 10 d1 b7 3d
       0.06936745 -0.054200873 -0.113228425 0.089754224
0001e0 dc e1 aa bd 6d 62 84 3d 6d ed bc bd 2e e0 94 bd
       -0.083438605 0.06464086 -0.09224973 -0.072693214
0001f0 2c 39 cc bd a1 3c f4 bd e7 1d 8c 3c 06 f1 2d be
       -0.09971842 -0.119256265 0.017104102 -0.16986474
000200 3c 49 e3 bd d5 82 08 3b 56 4d d6 bd 2d 34 86 3d
       -0.11097953 0.0020829935 -0.104639694 0.065529205
000210 45 5a c5 bd a9 be 2d 3c fe e5 23 bc e2 3b ca bd
       -0.09636358 0.010604539 -0.010003565 -0.09874703
000220 da 76 0b bd 4c 19 c8 bd ea 5d 5c bc d3 83 35 bd
       -0.034048893 -0.0977045 -0.013450125 -0.04431517
000230 a5 c9 61 bd 92 f5 a1 bd de 98 00 bd 78 36 24 bd
       -0.055123944 -0.07908167 -0.031395786 -0.040091008
000240 33 f5 90 3d 84 d5 3b bd ca f2 b0 bd 33 9d 50 3d
       0.07078018 -0.04585792 -0.08640058 0.050931167
000250 0b 2e ab bd ae c1 b2 bd e3 a3 d9 3d db 76 29 3b
       -0.083583914 -0.08728348 0.10626962 0.0025858197
000260 5c 92 1f 3d 54 5c bf 3c 9c 6a 89 3d 86 9e 41 3e
       0.03895794 0.023359455 0.06709787 0.18908128
000270 8e fa 89 bd 82 10 17 3e 84 50 d8 3d 9a f5 17 3e
       -0.06737243 0.14752391 0.10562232 0.14839783
000280 5d 53 a9 3d 4e 3f a0 3c e7 5f b3 bd ca 88 c4 bd
       0.082678534 0.019561436 -0.08758526 -0.09596403
000290 bb ab 29 3b 48 c2 63 bd 99 cf 47 bd ce 2e 50 bd
       0.0025889713 -0.055605203 -0.048781965 -0.050825886
0002a0 e4 60 a4 bc 23 f5 ec bc 31 58 c3 3b 5e 2a 4c bd
       -0.020065732 -0.028925484 0.005961441 -0.049845092
0002b0 f8 d2 50 bd 85 8c 9b 3d 62 16 bb bc d1 f2 cf 3d
       -0.050982445 0.07595161 -0.022837821 0.101537354
0002c0 98 b4 18 3d c4 7a 8f 3c ff 49 8a bd 2b c1 86 bc
       0.037281603 0.017514594 -0.06752395 -0.016449532
0002d0 c0 14 ec bc 99 ea 66 bb b2 94 8d bd 88 57 0d bd
       -0.028818488 -0.0035235046 -0.06913127 -0.034507304
0002e0 8f 5a a5 3d ef 30 94 bd 0e 58 25 3d e4 85 a1 bc
       0.08073913 -0.07235896 0.04036718 -0.019717164
0002f0 8e 64 2a 3d 00 72 62 bd 8c e2 81 3c 44 a6 ac 3d
       0.041599803 -0.0552845 0.015855096 0.0843015
000300 61 44 85 bd 72 6c aa 3d 5f 18 2e 3c c3 7b a7 3b
       -0.06507183 0.083214656 0.010625928 0.005111189
000310 13 01 f6 3d 99 01 39 3d f7 8f 1b 3e f6 d1 a8 bc
       0.12011924 0.04516754 0.15191637 -0.02060793
000320 36 38 0e be 73 02 a6 3d ab d1 08 3d b0 e9 b3 bd
       -0.1388863 0.08105936 0.03340308 -0.08784807
000330 24 dd 50 3d 29 be 81 bd 95 17 fb bc a4 2d aa bd
       0.050992146 -0.06335098 -0.030650893 -0.083094865
000340 84 9f 45 bc e1 b1 c0 bc e7 9b d6 bc fb c6 49 bc
       -0.012061957 -0.02352232 -0.026197387 -0.012315507
000350 fe 1a 82 be 92 6c 03 3e 36 9a a7 3d 3e 74 00 be
       -0.25411218 0.12834385 0.0818371 -0.12544343
000360 cd f4 52 3d 26 6c 1e be 08 2a db 3b ff 6a 66 3c
       0.05150299 -0.15470943 0.00668836 0.014063596
000370 36 68 dc bc 16 d3 ab bc 9a 57 9c bd 66 d5 8b 3d
       -0.02690516 -0.020974677 -0.07633896 0.06827812
000380 5d 10 44 3e d8 7f a0 bd f5 e0 15 3d d5 b4 2c bd
       0.19146867 -0.07836884 0.03659149 -0.042164642
000390 3a 43 0a be f7 12 be 3d fc 3c 95 3d f6 0b 3c 3c
       -0.13502207 0.09280961 0.072870225 0.011477461
0003a0 df 99 cf bd b0 62 8c bd 62 e2 ae 3d 51 ed 82 3d
       -0.101367705 -0.06854761 0.08539273 0.06392921
0003b0 12 5e 0d bd d5 e4 b8 bd ae ee 1d 38 49 c3 25 3d
       -0.03451354 -0.09028021 3.7654005e-05 0.04046944
0003c0 3c eb b9 bb 2c 35 ab bd 7b d0 1b 3e 84 12 6c be
       -0.005673794 -0.08359751 0.15216248 -0.23053938
0003d0 10 5c 4e bd ec 96 44 3c e5 11 83 ba 4a 1d 14 bd
       -0.050380766 0.011998873 -0.000999984 -0.036160745
0003e0 c2 7a be 3c 5e 1a c3 bd d6 2d 4a 3d 18 2e 47 3d
       0.023251895 -0.095265135 0.04936012 0.048627943
0003f0 86 7f 4e be c9 4d 01 3d ea 00 89 3d f0 ec 61 3d
       -0.20165834 0.031568322 0.066896275 0.0551576

bias f4 [128]
000000 00 75 ad bd d3 69 35 be f6 4f 00 be cd 05 95 3a
       -0.084695816 -0.1771615 -0.12530503 0.0011369527
000010 8c 12 9c bd 27 40 08 3d dd 6b 1d be 84 20 4d be
       -0.07620725 0.033264305 -0.15373178 -0.20031935
000020 1a 52 0d bc 7e e3 d8 bd fb 27 0f be 5e eb f0 bd
       -0.008625532 -0.10590266 -0.13980095 -0.11763643
000030 a4 7a 42 bc 47 fd 2d bd 0c 15 30 bd 81 45 f5 bd
       -0.01187006 -0.042477872 -0.042988822 -0.119761474
000040 ee ed b0 3d 68 35 73 bd 42 05 f8 bd f6 9d 9d bd
       0.086391315 -0.059377104 -0.12110378 -0.07696144
000050 55 09 28 bd 44 25 24 be 55 7b aa 3d 78 5b 25 bc
       -0.041024525 -0.1602984 0.08324305 -0.010092609
000060 7f 71 b7 be 2d ba 87 bd 02 ae 8d 3d 59 97 1c bb
       -0.35828778 -0.06627307 0.06917955 -0.0023893921
000070 51 da a3 bd f9 2d 88 bd af aa e8 3c 16 9f 36 be
       -0.08000625 -0.066493936 0.0284017 -0.17834124
000080 0b 4b 75 bc b7 8c eb bb f8 fb 3c bd 38 6c 0e be
       -0.014971505 -0.0071884054 -0.046138734 -0.1390847
000090 d4 4d 9d bd a3 0e c3 bb 0e b6 40 bd 97 1f f4 bc
       -0.0768086 -0.0059526726 -0.04704862 -0.02980022
0000a0 e9 52 42 bd 6c 88 8b bd 7f a4 f9 bd ef c0 02 bd
       -0.04744235 -0.0681313 -0.12189578 -0.031922277
0000b0 2d f9 34 be 32 27 55 bd 44 5f 04 3c 0e 6d 4d bb
       -0.17673178 -0.052039333 0.008079354 -0.003134552
0000c0 77 c1 2a bd 73 11 aa bd 25 9b 82 3a ac 89 8f bd
       -0.04168841 -0.083041094 0.000996445 -0.07008681
0000d0 1b 56 5b bc 05 30 37 3d ec fc 58 3b f7 a8 64 bd
       -0.013387228 0.04472353 0.0033109738 -0.0558252
0000e0 76 b3 0b bd 99 54 b3 bd d2 bb da bd 1f 69 00 be
       -0.034106694 -0.0875637 -0.10680355 -0.125401
0000f0 60 ae 46 bd 53 57 06 bd b3 53 fe bd e7 30 b4 bd
       -0.04850614 -0.032798123 -0.12418308 -0.0879839
000100 b2 30 a9 bd 4c 8d 3f be b8 26 e5 3c 8c b6 ce ba
       -0.08261241 -0.18706244 0.027972564 -0.0015770956
000110 c6 8e ad 3c 0d 21 53 3d bf 5e 85 bd c6 3e ec bd
       0.021186244 0.05154519 -0.06512212 -0.115354106
000120 90 d0 23 3d ce 63 d2 bd e2 f4 7e bd d7 ad a7 bd
       0.039993823 -0.102729425 -0.062245257 -0.08187454
000130 6b bd bb bc a0 22 c5 bd 9d 99 92 bc df e2 a9 bd
       -0.02291747 -0.09625745 -0.017895514 -0.08295225
000140 6f 40 1a be c3 31 b0 3c 14 e8 d7 bc e8 29 3e 3d
       -0.15063642 0.021508103 -0.02635578 0.046426684
000150 69 cc 55 bd 3c 24 98 3c 23 4e d0 bd 0a 59 32 bd
       -0.052196894 0.018571965 -0.101711534 -0.043541946
000160 58 81 aa bc 0d 4c 00 be 48 a6 5c bd 59 2c 3f bd
       -0.020813629 -0.12529011 -0.053869516 -0.046673153
000170 55 57 bc bd 49 a6 31 bd 95 21 4b be 3c de 6f bc
       -0.09196345 -0.043371473 -0.1983703 -0.014640387
000180 86 17 7d bd 21 65 75 bd eb 61 b0 be 62 43 e0 bd
       -0.06179001 -0.059910897 -0.34449705 -0.10950352
000190 44 28 0e bd 29 88 58 bd 6c e1 1f be a5 23 03 bc
       -0.03470637 -0.052864227 -0.15613335 -0.008004104
0001a0 55 21 10 be 92 5c ee bd 89 2f 78 be 22 73 e9 bc
       -0.14075215 -0.1163875 -0.24236883 -0.028497282
0001b0 c8 fe d8 bd 39 19 b5 bd ef 5f 88 be 40 2f 0f be
       -0.10595471 -0.088427015 -0.26635692 -0.13982868
0001c0 c4 2b c7 bd da 5e 02 be ba 31 a8 bc 8c 46 17 be
       -0.097251445 -0.12731495 -0.020531524 -0.14773005
0001d0 1a 38 6d bd 5b ac bd bd aa 5a c2 bc 9e 24 29 3b
       -0.05791483 -0.0926139 -0.023724873 0.002580918
0001e0 95 04 2b 3c 31 0b e7 bd d4 0f 85 be cb 2e 85 be
       0.010438104 -0.112814315 -0.25988638 -0.26012263
0001f0 7e 9f c4 bd 0a a6 68 3c 35 26 fa bd d2 19 aa bd
       -0.09600733 0.014199743 -0.12214319 -0.08305706

weight f4 [12, 128]
000000 47 2c db 3b 6c 47 24 bd eb 78 a3 bc d3 7a 38 bd
       0.006688628 -0.040107176 -0.01995512 -0.04503901
000010 6a 40 85 bd 11 0c 75 3c 84 49 ca 3b c2 3d d6 3c
       -0.06506427 0.01495649 0.0061733145 0.026152495
000020 57 f8 93 3c 92 4b bf 3b 30 79 9e bd d1 30 1e bd
       0.018062754 0.005837866 -0.077379584 -0.038620774
000030 a3 ba 0d bd ea 7d 9c 3b e1 50 3b 3b 74 17 2a 3c
       -0.03460182 0.0047757523 0.0028582143 0.010381568
000040 d0 b1 66 bd fc ce 04 3d e8 70 d4 b8 cb 8e c3 3c
       -0.05632192 0.03242396 -0.00010129978 0.0238718
000050 8e 4c 51 3d e7 a2 8b bd 0e 7c 7d 3d ef 90 ee 3a
       0.0510984 -0.068181805 0.061885886 0.0018201153
000060 e5 0a 24 bc eb 54 0f 3d 99 01 95 3c cf 40 05 3c
       -0.010012363 0.034993093 0.018189238 0.008133127
000070 0b fc 93 3c 40 bc 8b 3d 39 c1 7e bc c7 12 c0 bc
       0.01806452 0.06823015 -0.015548998 -0.023446454
000080 d7 8f 38 bc 55 59 c3 bc 26 f7 e6 bb ab 16 3b bc
       -0.011264763 -0.023846308 -0.0070485054 -0.011418979
000090 c6 b8 85 3b 38 b2 94 3c bb c7 32 bd d6 69 cc 3c
       0.0040808646 0.018151388 -0.04364751 0.02495281
0000a0 5b 62 be bc c9 28 79 bd f3 5e 94 3d 6f ee 26 bd
       -0.023240259 -0.06082991 0.072446726 -0.04075473
0000b0 1b 81 db 3c e8 32 04 bd 3b 52 94 3c d1 5c 03 bc
       0.02679496 -0.03227511 0.018105617 -0.008017735
0000c0 e1 3a 20 bd 0d 1a 43 bc 38 4a 05 3e f9 33 c4 bb
       -0.03911865 -0.011908066 0.13016593 -0.005987641
0000d0 a4 21 eb bb 5c db ba bc c3 e7 ae bd 77 cb 32 bd
       -0.007175641 -0.022809677 -0.08540299 -0.04365107
0000e0 04 72 9c 3d 06 25 cb bb 41 da 34 3d ee d2 95 bc
       0.07638934 -0.006199482 0.044153456 -0.018289056
0000f0 d9 e2 1b 3c 9c 78 23 3c 85 bb a7 bc 47 9a 39 bb
       0.009514534 0.009977486 -0.020475158 -0.0028320716
000100 f3 48 16 bc f5 02 2a 3c 1d cf 2e 39 e8 5b 21 3d
       -0.009172666 0.010376682 0.00016671089 0.03939429
000110 5c ac c9 b9 6b 07 af 3c 76 0f 0c 3c 90 60 86 3b
       -0.00038466125 0.021365842 0.008548608 0.0041008666
000120 06 eb dc bc 1b d0 e1 3c a4 2e a6 3c be 55 fd 3c
       -0.026967537 0.027565053 0.020285912 0.030924674
000130 e6 5e 0e 3c df 00 d8 3a 0c a3 c1 ba cb 0b 31 bd
       0.008689618 0.0016479752 -0.0014773323 -0.043224137
000140 37 4f f3 bc 31 62 0c bd 2d 3e 20 bd a8 95 c1 bb
       -0.029700859 -0.03427333 -0.039121795 -0.005907733
000150 81 1e 90 3d e2 67 58 bd cc b4 eb 3c 20 0a 5b bc
       0.07037068 -0.052833445 0.028772734 -0.013369113
000160 16 63 81 3d f2 97 1b 3d 6d 5b 7a 3d 3d 96 0e bc
       0.06317727 0.037986703 0.061122347 -0.008702812
000170 38 44 4d 3d a5 af d4 bc 02 14 ba bd aa 60 93 3c
       0.050113887 -0.02596266 -0.090858474 0.017990429
000180 94 9a 50 bd 87 e1 3b bd 87 3f 4e 3c 38 32 fd 3c
       -0.050928667 -0.045869377 0.012588388 0.030907735
000190 2e 01 7f 3c 82 67 dd bc 48 92 ec bb 26 fb 56 bb
       0.015564246 -0.027026895 -0.0072195865 -0.0032803505
0001a0 c3 0b 91 bc 99 be 25 3d b9 c0 ef 3b 68 80 3f 3d
       -0.017705804 0.04046497 0.0073166755 0.046753317
0001b0 45 1f aa 3c 42 03 a2 3c 86 e1 1d bd a4 a8 b2 bc
       0.020766864 0.019776944 -0.038545154 -0.02180893
0001c0 fd cd b6 bc 6c 99 7e 3d 6c 19 e2 3b 5a ce 85 3d
       -0.02231502 0.062158033 0.006900003 0.06533499
0001d0 dd e0 82 bd da f3 a1 3c be 57 cf bc 80 87 3d 3d
       -0.063905455 0.019769598 -0.025310393 0.0462718
0001e0 11 ad d2 bc fe 60 5a bb d2 12 cd 3c a2 e3 28 bc
       -0.02571729 -0.0033321972 0.025033388 -0.010308178
0001f0 74 a8 67 bc 22 5a f7 bc 9b 6a 93 bd 87 b2 1d 3d
       -0.014139283 -0.030194346 -0.07198068 0.038500335
000200 b7 8d 89 bd b0 4e 33 bd 03 e6 9e bc 03 7b 25 bd
       -0.06716483 -0.043776214 -0.019396788 -0.040400516
000210 7b 43 0c bc 0e 17 75 3d a3 d1 86 bd 31 bf ff bd
       -0.0085610105 0.05983644 -0.06582954 -0.12487639
000220 fc 52 38 bd ce 25 76 bc 87 07 39 bd 27 18 c7 bc
       -0.045001015 -0.015023662 -0.045173194 -0.024303509
000230 a9 eb 92 3d 0d 24 0d 3d ac 23 08 39 28 3f b5 3b
       0.07173855 0.03445821 0.0001298326 0.0055312105
000240 86 57 c8 bb b8 73 19 3c 55 01 09 bd 47 a3 b3 bd
       -0.006113949 0.009365968 -0.033448536 -0.08771377
000250 3f 57 46 bc ec 95 2f bd 49 b2 07 bd 49 62 27 bd
       -0.012105762 -0.042867586 -0.03312901 -0.040865216
000260 b8 06 bf 3b 9a 29 07 bc 54 29 4a bd 4b 6a 8a bb
       0.0058296584 -0.008249665 -0.04935582 -0.004224097
000270 2c 6e ac bd a1 24 46 bd c7 ff e1 3d 93 d7 29 bd
       -0.08419451 -0.048374776 0.11035114 -0.041465353
000280 0d 1a ba 3c 94 d0 1a bb a4 01 51 bd a0 3a fe 3c
       0.0227175 -0.0023622857 -0.051026955 0.031033814
000290 07 7c 3e 3c 0e 69 e2 3c 0f dd 3a bd d0 78 9e bd
       0.01162625 0.027637985 -0.045620974 -0.07737887
0002a0 c3 c1 67 bd 4c a6 eb 3c 4e 81 80 3c a3 a5 98 39
       -0.05658127 0.02876582 0.015686657 0.00029115108
0002b0 0a 3d 71 3d 4f e7 c1 3c e6 af 61 3d cc 48 26 3d
       0.058896102 0.023669867 0.05509939 0.04059677
0002c0 62 92 9c bd 1b b7 fb 3c cb 2a 26 3d 5a 14 4f 3d
       -0.07645108 0.03072696 0.040568154 0.05055652
0002d0 8c 47 81 3b 8c e3 7a bc 47 cd 9d 3d eb 79 a2 bc
       0.0039452966 -0.01531304 0.07705169 -0.019833526
0002e0 d3 30 64 bb cc 24 67 3d 10 f1 73 3d e5 5b 6d 3b
       -0.003481914 0.056431577 0.059556067 0.0036218103
0002f0 c6 c6 af 3d cc 7a b0 bc 8d 38 ac 3c d5 2c ae bc
       0.08582835 -0.02154293 0.02102306 -0.021261612
000300 3f 93 09 3c 01 9f 79 3d 5f 85 17 bc fc d2 7c 3d
       0.008396923 0.060942654 -0.009248107 0.061724648
000310 9b 83 ac bc 30 68 66 3d db e4 09 bb 4e 6e ad 3c
       -0.021058848 0.056251705 -0.002104095 0.021170761
000320 ac bc ec 3d 8f 25 26 3d 7c 33 7a bc 21 8d 10 bc
       0.11559424 0.040563162 -0.015271064 -0.00882271
000330 f7 a8 13 bd 6c 52 92 bc d1 bb 57 bc 76 ee 75 3c
       -0.03604981 -0.017861567 -0.0131673375 0.015010467
000340 9a 0f 7b bb 16 b3 2c 3d db 84 27 3c f1 19 59 3d
       -0.003830886 0.042162977 0.010224546 0.053003255
000350 39 e8 e7 3c 18 b4 09 bd fe 0a e7 3d 44 69 a1 3d
       0.028308975 -0.033619016 0.112813935 0.07881406
000360 40 d8 81 bc 31 7c fb 3c 01 79 dc bb 34 c2 da 3c
       -0.015850186 0.030698868 -0.006728292 0.026703931
000370 e4 0a 76 bc 63 8d 87 bd fb 58 ee bb db 97 4b 3c
       -0.015017245 -0.06618764 -0.007273791 0.012426342
000380 c9 18 41 bc 36 23 ca b9 87 e8 0c 3d 6d 7c 33 3d
       -0.011785694 -0.00038554677 0.034401443 0.043819834
000390 c7 5d 6a bd 20 51 33 3c 5a c3 8a bb 5e 40 23 3d
       -0.05721834 0.010944635 -0.0042347135 0.039856307
0003a0 ff c9 cc bc 3d 77 af 3b 69 07 58 3d a2 2f 59 3d
       -0.024998663 0.0053547905 0.052741442 0.05302394
0003b0 63 d3 11 bd 59 32 13 3b 89 4f 31 bd f0 96 0c 3d
       -0.035601985 0.002246043 -0.04328874 0.034323633
0003c0 3d 68 1a bc 33 da 3b bd 94 ed 4f 3c 7b ee 88 be
       -0.009424266 -0.045862388 0.01269092 -0.26744446
0003d0 a9 2c 0e bb f8 57 9b bc a9 89 e5 3c b7 45 ae 3b
       -0.00216941 -0.018962845 0.028019743 0.0053183693
0003e0 9a c5 09 bd 53 30 7d 3b 68 fa 76 bd 0b fb 39 3c
       -0.033635713 0.003863354 -0.0602974 0.011351357
0003f0 e3 c7 a4 3d 74 d4 9b 3d 6c 48 3c bd ac 9b 24 bd
       0.08045938 0.076088816 -0.045967504 -0.040187523

bias f4 [12]
000000 45 93 24 3d 9f 8c bf 3c 92 3a 35 be 7f e1 e0 3c
       0.04017951 0.023382483 -0.17698124 0.027451275
000010 26 c8 34 3d d7 39 12 bd f2 0b 48 be 1b b3 ab 3e
       0.04413619 -0.03569969 -0.19535807 0.33535084
000020 a0 47 6c 3e 8c e6 f5 3d a2 ed 62 3e 15 0f 1c 3e
       0.23074198 0.12006864 0.22160962 0.15240128
