config/policy_1.pt (torch, 786952 bytes, 8 tensors)

weight f4 [512, 54]
000000 38 bd 6c be fc 9e 6b be f9 88 5c be a3 5e 89 3e
       -0.23119056 -0.23009866 -0.21536626 0.26830015
000010 8f 85 59 3e 20 b3 bd 3d 3d c8 3e be db f1 82 be
       0.21242355 0.09262681 -0.18631072 -0.25575146
000020 8f 34 10 3d 10 01 e9 3d 19 81 17 3e 9b ce 6a 3d
       0.035206374 0.11377156 0.1479534 0.05732594
000030 10 ff 97 3e 35 22 5c 3e 2a 33 8f 3a 3e 29 cb 3e
       0.29686785 0.21497424 0.0010925282 0.39679903
000040 17 dd ae 3e 36 9f d7 bd cc 0d e0 bd c1 5a 40 3c
       0.34153053 -0.10528414 -0.109401315 0.011740387
000050 56 4d 9a 3e 3d e2 12 bf 7a 4b 41 3f e8 87 66 be
       0.30137128 -0.5737646 0.75505793 -0.22512782
000060 bc 99 98 3e 95 f8 5b 3e d6 ad e7 bd bf ce 9e 3e
       0.2980479 0.21481545 -0.113124534 0.3101711
000070 4a 41 f9 be 7e 6c d6 bd 41 d0 fb be 75 31 d7 3d
       -0.48682624 -0.10469912 -0.49182323 0.1050748
000080 6f 82 e4 3e 63 c9 4f be 28 21 f9 3b 02 36 0b 3e
       0.44630763 -0.20291667 0.0076028295 0.13594821
000090 1e d1 b7 bc 05 b8 3f 3d cb ed 2a bd 47 31 15 3e
       -0.022438582 0.046806354 -0.041730683 0.14569579
0000a0 cd 17 4f bd 07 25 86 bd fb d3 94 bd 68 68 88 bd
       -0.050559808 -0.06550031 -0.072669946 -0.06660539
0000b0 ae d8 7b bd ac 71 c5 bc 25 03 82 3d 87 b4 68 bc
       -0.06148594 -0.024102055 0.06348256 -0.014203197
0000c0 3a dd de bd 4f cb 93 bd c4 ac 99 ba f3 b4 bf bd
       -0.10882039 -0.072165124 -0.0011724462 -0.09360685
0000d0 72 04 07 3e e3 64 30 be 4a be a1 3e 4e 97 32 be
       0.1318529 -0.17225985 0.31590492 -0.1744053
0000e0 4e 8f 1c 3f 5e 1f 1c bd 1a da 67 bf 43 27 12 be
       0.61156166 -0.03811585 -0.9056717 -0.1427279
0000f0 2f 61 1f 3d a2 f7 c7 bd 24 a5 70 be f6 96 c6 3e
       0.03891104 -0.09764029 -0.23500496 0.3878705
000100 ee e9 82 be 31 dd 2a 3e 1b fb 2d bf 00 b8 93 be
       -0.255691 0.1668594 -0.6796128 -0.28851318
000110 ee fd 02 bd b8 50 89 3e 74 75 10 bd 86 db bd be
       -0.031980447 0.26819396 -0.035268262 -0.37081546
000120 d1 7f 8e 3d 70 17 83 3d 38 54 0f be 90 82 6e 3e
       0.06957973 0.06400955 -0.1399697 0.23291993
000130 4a 3b 9c be 86 26 83 3e 2a df bc 3d 95 dc f0 be
       -0.30513984 0.2561533 0.09222253 -0.4704329
000140 cb c7 13 be f7 41 3f bd 98 f6 0d bf d9 7c ee bd
       -0.14431684 -0.04669377 -0.554544 -0.116449066
000150 b4 5c 02 be 2e ef fb bd ec 52 17 3e 3b cb 47 bd
       -0.12730676 -0.12301479 0.14777726 -0.0487778
000160 4a d3 83 3d 87 29 de bd 39 ad 5f 3d 64 5f f8 bc
       0.064367846 -0.108477645 0.054608557 -0.030318923
000170 5b e3 18 3c c7 d9 0a bd 32 e9 02 bd 8b 42 3f bd
       0.0093315495 -0.033899095 -0.031960674 -0.04669432
000180 cc 8c 9f bd 4f dc 18 bc 78 63 11 bc 8d 11 77 3d
       -0.07790527 -0.009329869 -0.008873813 0.060319472
000190 84 3e 67 3b fa 71 8b 3d b8 57 e2 bd 21 73 c4 bd
       0.0035285065 0.06808849 -0.11051887 -0.095922716
0001a0 d6 ab 92 3d 4f 20 cd bd 43 27 54 3d e5 19 b6 bc
       0.07161681 -0.10015928 0.051795255 -0.022229144
0001b0 2f bd f0 3c 89 26 8e 3e a2 79 ea 3b 3b 9e cd 3d
       0.029387085 0.27763775 0.007155613 0.10039946
0001c0 2c c2 78 bd 41 9e 2c be 35 cc 3f bd a4 11 7d bd
       -0.06073205 -0.16857244 -0.046825606 -0.0617844
0001d0 b2 d6 0e 3e f6 73 54 be a5 33 28 bd ed f6 4e 3e
       0.13949087 -0.2074736 -0.041064877 0.20211382
0001e0 99 88 5e be 45 7d 91 bd 7f 9a 79 3e e2 39 9f be
       -0.21731795 -0.071039714 0.24375342 -0.3109885
0001f0 ef d0 0e bf da 39 18 3e fb 92 f9 3e f9 0b d4 3d
       -0.5578756 0.14865819 0.4874495 0.10353846
000200 05 01 8c be bf c2 36 bc d5 bd 1a 3e 9f 71 a9 3a
       -0.27344528 -0.0111548295 0.15111478 0.0012927538
000210 80 27 a8 bd c7 8e b0 bc c7 83 9b 3e 2f ef 88 3e
       -0.08210659 -0.021552457 0.30373976 0.26744983
000220 a4 e9 98 bc 08 e8 96 3e f3 44 55 3e 20 1b c4 be
       -0.018666096 0.294739 0.20827083 -0.38301945
000230 6e 3d 3e 3d 19 1c b1 bd 18 8c c2 bc 8e 90 35 bd
       0.046445303 -0.08647937 -0.023748443 -0.04432731
000240 c5 91 c5 bd fa f2 20 bc 63 eb 44 be 9c c6 17 3e
       -0.09646944 -0.009823555 -0.19230418 0.14821857
000250 72 c5 1c bd 5d df 21 be 85 84 bf 3d f9 51 d9 3c
       -0.038274236 -0.15807863 0.09351448 0.026528345
000260 71 d4 24 3d 16 c7 fe b8 70 dd 9b bc 95 aa e7 3d
       0.040241662 -0.000121487465 -0.019026488 0.11311833
000270 4d 35 8a bd cd cf ac bd d0 64 9a 3d d9 ed ba bd
       -0.067484476 -0.08438072 0.0753876 -0.09127397
000280 60 b3 0f bd 65 81 eb bc ea 42 d2 bd 7c 7c 7a 3d
       -0.035083175 -0.028748224 -0.10266669 0.061153874
000290 17 72 b4 3e 95 8e ea 3c 09 44 ab bd 28 da cf 3d
       0.35243294 0.028632442 -0.08362586 0.10149032
0002a0 b2 51 ee bb d6 82 1c be fa 42 cd be f1 b6 82 bd
       -0.0072729224 -0.15284285 -0.40090162 -0.063825496
0002b0 f8 47 89 bd b9 2a b7 bd c7 76 56 be 83 88 3d be
       -0.0670318 -0.089436956 -0.20943747 -0.18509106
0002c0 bd 75 aa be 34 33 18 bf de 67 26 be bd 8d 48 be
       -0.33292952 -0.5945313 -0.1625056 -0.19585319
0002d0 a3 9d 1d 3f ce 55 4f 3e 0b 9a 96 be 26 d1 9e 3e
       0.6156866 0.20247576 -0.294144 0.31018943
0002e0 b3 45 ab bb 70 b8 a5 be b8 bf 74 be 98 cf 0d 3e
       -0.0052268147 -0.32367277 -0.2390126 0.13848722
0002f0 31 ba 27 be f7 1a 35 bc 34 c8 01 be 2e 08 7c 3c
       -0.1637962 -0.011053792 -0.12674028 0.01538281
000300 f4 cb fe 3d f7 62 ed bd e1 43 26 bd b6 61 d5 bc
       0.12441245 -0.11591142 -0.040592078 -0.026047569
000310 ce 51 81 bd eb 58 94 3d 0c 38 6b bd 51 01 c2 3d
       -0.06314431 0.07243522 -0.057426497 0.09472907
000320 8e 34 07 bd c2 a1 dc bd 04 bf 26 3d 2b 54 b5 bd
       -0.033009104 -0.1077304 0.04070951 -0.088539444
000330 43 60 5e 3c 42 39 c9 3c b0 a6 a5 bc 0a 19 da bc
       0.013572755 0.024563435 -0.020221084 -0.026623268
000340 e0 f3 4f 3d 27 bb 80 bd 62 17 a0 3d c5 26 49 bd
       0.050769687 -0.062856965 0.0781696 -0.04910924
000350 0d 81 02 3e ba ab e5 3d 0e 3f f1 3c c2 a1 1a 3e
       0.12744541 0.11214395 0.029449012 0.15100768
000360 73 72 65 3e cb ed 96 3e cf 31 fa be 2d ac 74 be
       0.2240694 0.29478297 -0.48866126 -0.23893805
000370 fe 13 92 be 1b 77 ce bd e4 e9 39 3d 4d e5 36 bd
       -0.28530878 -0.10081311 0.04538907 -0.044652272
000380 d5 47 8f 3e 7b f2 cf 3e 42 9d 53 be a2 dc 52 3e
       0.2798449 0.40614685 -0.20665458 0.20591977
000390 06 28 b0 be ae 35 d0 bd c7 6a 91 3e e2 81 2f bc
       -0.34405535 -0.101664886 0.28401777 -0.010712119
0003a0 9a 7b f3 bd 6d 81 1f 3e 43 aa af be 04 5c 5a be
       -0.118888095 0.15576716 -0.34309587 -0.21324164
0003b0 11 14 a3 be b2 f9 cc bd 31 71 58 3d 45 4b 33 3e
       -0.31851247 -0.10008563 0.052842323 0.17509182
0003c0 6b c9 bb 3e c8 84 8d be 0b 8a 10 3d fe 07 e0 3d
       0.36677107 -0.27640367 0.035287898 0.109390244
0003d0 a6 d7 8d be 85 31 97 be a9 a2 97 be de ee 98 3e
       -0.2770359 -0.29529968 -0.29616287 0.2986974
0003e0 24 9a ab 3d 0b 8f 63 bc 0c d4 6b 3a ac 6a 98 bd
       0.08379009 -0.013889085 0.0008996136 -0.07442221
0003f0 9c 76 a2 3d 4f 35 e4 3b ea fc 13 bc b2 17 ce 3d
       0.07932779 0.0069643627 -0.009032467 0.10063113

bias f4 [512]
000000 23 f4 ae bc 94 56 23 3d 51 5b f2 3d 8c 11 01 3e
       -0.021356648 0.03987749 0.118338235 0.1260435
000010 5f 16 1d 3e 54 db 98 3d 69 b9 d8 3d c3 4e fc bd
       0.15340565 0.074637085 0.10582239 -0.1231971
000020 d2 39 00 bc f4 c5 aa 3d 47 1f 29 be 86 d3 22 be
       -0.007826285 0.08338538 -0.16515838 -0.15901002
000030 06 b5 e0 3d 35 91 49 bd dc 09 fb bd 38 68 c1 3d
       0.109720275 -0.049210746 -0.1225774 0.09443706
000040 95 81 ac 3d 1e 06 00 3e 7c 32 05 3e 5d d3 34 bd
       0.08423153 0.12502334 0.1300754 -0.044146884
000050 89 ef 29 3e ec d8 0c bd 13 62 c3 bd e0 ef a2 3d
       0.16595282 -0.03438656 -0.095401905 0.07955909
000060 56 c0 0b be 56 c1 7f 3d 99 c4 67 3d cd 30 07 3e
       -0.13647589 0.06244024 0.056583975 0.1320221
000070 d2 ea 74 3c 48 6a 81 3b 1e ba af 3d 13 c2 d3 3b
       0.014948564 0.0039494373 0.08580421 0.0064623444
000080 f8 7c 3f 3d 96 23 de bd d8 91 04 3e 59 6e 29 bc
       0.04675004 -0.10846631 0.1294626 -0.01034125
000090 3a 76 9f bd 39 eb b0 bd b6 45 69 3d 0a 98 1f be
       -0.07786222 -0.08638615 0.056951247 -0.15585342
0000a0 14 3d 7f 3d c8 09 e2 3c 88 ff 2f be 0d bf b3 3d
       0.062314108 0.027592555 -0.17187321 0.087766744
0000b0 09 13 e7 bc be 20 0f 3b 55 80 5c be da a4 97 bc
       -0.028207319 0.0021839584 -0.2153333 -0.018511225
0000c0 dc 59 77 bc d2 1f 01 be 93 3c 06 3c cd cb 07 3c
       -0.015097108 -0.12609795 0.008193153 0.008288336
0000d0 03 9c 2e 3d 79 a6 39 3c 04 26 a9 3d 92 43 ba 3d
       0.042629253 0.011331194 0.08259204 0.09094919
0000e0 26 77 99 3b 10 93 eb bd 8d 0d 58 3c 65 21 14 be
       0.004683393 -0.11502659 0.0131868245 -0.14465864
0000f0 8e 12 8a bd 7f 71 96 3d 22 70 3e bd 20 c8 0d 3e
       -0.0674182 0.073458664 -0.046493657 0.13845873
000100 ef 1a 07 bd f7 ab b3 3d 24 2d 43 be 58 49 52 bd
       -0.03298467 0.08773034 -0.19060189 -0.051339477
000110 27 76 de 3d f2 68 ff 3d d1 82 2b bd 50 bb 97 bd
       0.108623795 0.124711886 -0.041872803 -0.07408774
000120 da 80 8a bd ef 1b 1f 3e e9 5b 53 3c 0c b3 10 be
       -0.06762858 0.15538 0.012900331 -0.14130801
000130 5b a9 3e bd ac f2 fa 3d 95 9a dc bb 91 2f 1d 3e
       -0.04654823 0.12253317 -0.006732295 0.15350176
000140 81 04 93 3d 63 77 41 3d eb 0d 86 bd 82 ce 80 bd
       0.071785934 0.047232997 -0.065456234 -0.06289388
000150 66 4c 28 3d 5b 8e 71 bd 1f 0a fa bb 96 a5 99 3d
       0.041088484 -0.05897365 -0.007630601 0.07502286
000160 1a 2d 02 3d 06 22 e0 bd 2d b0 31 bd f0 06 c1 3d
       0.031781293 -0.109439895 -0.043380905 0.09425151
000170 60 73 18 bc 99 87 9b 3b 4e 1b bc 3d fb 7b e7 3c
       -0.009304851 0.004746389 0.091848955 0.02825736
000180 f7 92 ce 3d 6c 4a 28 3b dd be b3 3c 93 da 13 be
       0.10086625 0.0025679125 0.021941597 -0.14438848
000190 07 0f c6 3d ec aa f4 bd 9f cb 91 bd b8 a0 68 3d
       0.09670835 -0.11946663 -0.07118916 0.0567939
0001a0 d3 7a 39 3d a8 18 36 be 2e 8b c2 bd 45 98 22 3e
       0.04528315 -0.17782843 -0.09499203 0.15878399
0001b0 86 0f bb bc 68 6e 09 3d 53 b0 ec bd 8f 58 9b bd
       -0.02283455 0.033552557 -0.11557069 -0.075852506
0001c0 e1 4e 85 3d 19 28 fd bc cf b0 1c bd a9 f2 fc 3d
       0.065091856 -0.03090291 -0.038254555 0.12350971
0001d0 f1 ee 12 bd ce 9b b9 3a 7b 9c 92 3d 29 5f a9 3c
       -0.035872404 0.0014160813 0.071587525 0.020675259
0001e0 38 70 00 bd b3 28 93 3d 37 64 2a bd ea 4f 66 bd
       -0.03135702 0.07185497 -0.04159948 -0.056228556
0001f0 28 c3 0a bc 70 42 c9 3c 25 93 19 be 7c 9d 18 be
       -0.00846938 0.024567813 -0.14997537 -0.14903826
000200 a5 c9 21 bd 3c 70 ac bd c0 bc 99 bd a5 29 c2 3d
       -0.039498944 -0.084198445 -0.07506704 0.09480599
000210 f2 2d 05 bd 11 de 9f bc 19 0d 5c 3d d2 f8 c3 bd
       -0.03251452 -0.01951507 0.05372343 -0.09568943
000220 20 cc 26 bd 19 43 35 3d 37 f4 37 3d ef e7 16 bd
       -0.040722013 0.044253442 0.044910636 -0.036842283
000230 62 ed 6b bc a9 bb 2a 3d 9b b7 f2 3c 96 42 a2 bc
       -0.014399858 0.041682873 0.029628566 -0.019807141
000240 8d 8c 9d bd 30 77 e7 3c c1 b5 f5 bd 55 51 4c 3d
       -0.076928236 0.028255075 -0.119975574 0.04988225
000250 90 b6 bb 3d 57 12 27 3d 58 a1 c0 3d 95 aa 9c 3d
       0.091656804 0.040788975 0.09405774 0.076497234
000260 00 91 46 bd 92 ec 02 bc d1 d7 d6 bd 70 e1 c4 3c
       -0.048478127 -0.007990973 -0.104903825 0.024033278
000270 29 f0 71 bd 03 f5 e3 3b 71 06 07 bc e2 39 75 bd
       -0.059066925 0.006956698 -0.008241282 -0.059869654
000280 3a 06 2e 3d 8b 81 ae bc fa 7a 28 3e 8b ae cd 3d
       0.042486407 -0.021302005 0.16453162 0.10043057
000290 b5 9c ac bd d7 8f 62 3d 6e 3d 57 bc f2 6b bc 3d
       -0.08428327 0.055312958 -0.013137205 0.092002764
0002a0 e7 c8 c9 bd 74 aa 99 3c 75 51 03 3d dc f2 7f bd
       -0.09852772 0.018758036 0.032060105 -0.062487468
0002b0 91 f0 6e bd 6c f4 8c 3d c3 c2 07 3e 7e c2 b4 bd
       -0.05833489 0.06882557 0.1325789 -0.08826159
0002c0 3b a9 9d bd f5 02 de 3d 4a d5 db 3c 62 13 ab bd
       -0.07698294 0.10840408 0.026835103 -0.08353306
0002d0 b1 92 1d be b8 dd ad bd f7 31 54 3d c2 3f e9 bb
       -0.1538799 -0.08489555 0.051805463 -0.007118196
0002e0 69 51 f9 bd fc 33 c5 bd 01 4e 61 3d 40 0f 75 3c
       -0.12173731 -0.09629056 0.05500603 0.014957249
0002f0 95 e6 ed bd e6 57 0e bd ec a4 cc bd 06 0b 2f 3d
       -0.11616246 -0.034751795 -0.09992394 0.042735122
000300 d7 79 00 3e 17 b1 9b bd 25 1d 35 3d d6 13 b8 bd
       0.12546478 -0.076021366 0.044217248 -0.089881584
000310 65 fb 00 be 73 29 7b bd 64 2a 28 bd 54 c5 70 3d
       -0.125959 -0.061318826 -0.04105605 0.058781937
000320 6c f2 d4 bd 25 0f fc bc 72 bf d3 bd 87 03 59 3d
       -0.10397801 -0.03076894 -0.1033925 0.05298188
000330 a8 c7 3a bd 19 a0 a5 3d b0 89 e4 bc 31 69 b0 bd
       -0.045600563 0.08087177 -0.027897686 -0.08613814
000340 ef ab fa 3d bd 1e 1c bc a9 d6 05 3d ff 3c ae 3d
       0.12239825 -0.009528813 0.03267542 0.08507728
000350 3e 74 8e bd b1 2a a7 3d 0c 6d 01 3d 79 92 16 be
       -0.06955765 0.081624396 0.031598136 -0.14704312
000360 0f 83 11 3d 1b 24 30 3c 90 b8 24 bd 5a 9f cb bd
       0.035525378 0.010750796 -0.040215075 -0.09942503
000370 b7 96 cc 3d f7 fa b6 3b 43 cf 30 3d b4 1b bf 3d
       0.09989684 0.0055841166 0.04316641 0.09331456
000380 59 ec 8b bd bb b2 ac 3c 74 25 f7 3d d0 ea b7 3d
       -0.06832189 0.02108132 0.120676905 0.08980334
000390 cd a7 94 bb 85 b7 e6 bb 01 23 8e bd e6 dd 10 3e
       -0.004536605 -0.00704092 -0.0694027 0.14147148
0003a0 3b a0 3c 3d 5f c9 2f 3c 00 82 18 bd fb de f6 bd
       0.046051245 0.010729163 -0.037233353 -0.12054249
0003b0 b3 24 6e bd 84 3f 52 bd 65 f9 d0 3d a4 55 52 3d
       -0.058140468 -0.051330104 0.10203818 0.051351205
0003c0 52 aa 51 bd 1b f8 ac bd 96 d4 de bc 95 dd a0 bd
       -0.05118782 -0.0844576 -0.027200978 -0.078547634
0003d0 cc 08 90 3d c5 5e 82 bd 73 16 a9 3d 74 49 2f 3d
       0.07032928 -0.06365732 0.08256235 0.04279466
0003e0 be 59 1f bd 46 8f a7 bd 9e d0 cf bd 0c 86 09 3e
       -0.038903944 -0.08181624 -0.101472124 0.13430041
0003f0 c6 d3 f4 3d 49 f9 a6 3d c6 f6 1f be 8b 1f a3 3b
       0.11954455 0.08153016 -0.1562148 0.0049781254

weight f4 [256, 512]
000000 06 01 1e bd ab 7c 45 be 17 a4 14 be 0f f5 f0 bc
       -0.038575195 -0.19285838 -0.1451572 -0.029413728
000010 c4 c6 11 bd a6 0e b0 bc d9 12 ea bc e3 83 bf ba
       -0.03558995 -0.02149136 -0.02857344 -0.0014611449
000020 c2 6c 19 3c e4 d2 25 be 2e 00 36 3e 67 dd 33 3d
       0.009364309 -0.1619373 0.17773506 0.043912318
000030 f0 0f 18 be fc a5 f1 3d 00 06 1f 3e d0 86 4d 3c
       -0.1484983 0.11799237 0.15529633 0.012544349
000040 2a e7 d6 bd 78 50 89 bd 0a 08 f1 bd 43 f9 05 be
       -0.1049331 -0.06704801 -0.117691115 -0.13083367
000050 3b aa de bd 5a 03 10 be ad 85 a0 bd ef 6a b5 bc
       -0.10872313 -0.14063779 -0.07837997 -0.022145716
000060 b9 b3 70 bd 39 80 0d be 8a 48 b3 bd 77 f6 c3 bd
       -0.058765147 -0.13818444 -0.0875407 -0.09568494
000070 81 62 6c 3e 2e a5 a4 bd 3a 06 71 bd 75 c4 16 3e
       0.23084451 -0.08039318 -0.05884383 0.1472338
000080 a7 dc ac bd 64 e7 73 bc b0 e0 cf 3c 6d 81 6f bd
       -0.084405236 -0.014886711 0.025375694 -0.05847304
000090 c6 6f 66 bd e7 1d 93 3c 9a 84 2e 3c 67 19 f0 3d
       -0.05625894 0.017958594 0.010651732 0.11723595
0000a0 0f 7e 6c bd b4 5e 81 3d 97 d9 a5 3d b3 31 c3 bc
       -0.057737406 0.06316891 0.080981426 -0.02382741
0000b0 e7 08 b1 bd e6 76 df 3c ec 7a 10 3e ed 07 9d bd
       -0.08644276 0.027278375 0.14109391 -0.07667527
0000c0 b7 4c e8 bc 76 10 8a 3d cb 0d 77 3d 65 ed 59 bd
       -0.028356893 0.06741421 0.06031589 -0.053204913
0000d0 8d b4 9a 3d c8 da a6 bd 36 b4 02 3d 12 97 29 3d
       0.075539686 -0.08147198 0.031910144 0.041403838
0000e0 c5 09 89 bc 03 9c fb bc bd 4e a1 bd 65 97 23 be
       -0.016728291 -0.03071404 -0.07876346 -0.15975721
0000f0 6d c0 9a bd ce 70 96 bd c8 68 27 3e 47 cb 8b bd
       -0.075562336 -0.073457345 0.16348565 -0.068258815
000100 8d 55 ac bc 03 52 19 3d 51 ab a5 bd 62 8e 6b 3d
       -0.021036888 0.037431728 -0.08089317 0.057508834
000110 33 f4 e9 bc b4 56 70 bd e5 5a 53 3c 1a 52 80 bd
       -0.028558826 -0.058676437 0.012900089 -0.0626566
000120 aa ce d0 3c d2 dd 36 3d 3c 4a 91 3d 7b 00 00 be
       0.02548917 0.044645138 0.07094237 -0.12500183
000130 31 1a 5d 3d 74 33 09 be ba c1 f5 3b 50 65 0c be
       0.053980056 -0.13398534 0.0074999006 -0.13710523
000140 b1 5f 9a bd ea 70 8a bd 2c ef e2 bb 68 d8 a3 bc
       -0.07537783 -0.06759818 -0.006925484 -0.020000651
000150 b3 95 94 bd 76 bb 15 3e 19 1d 1e be 00 82 1c be
       -0.07255115 0.14622292 -0.15440787 -0.15283966
000160 d3 09 56 3c f1 0c 0c 3d 86 cc 09 3d 2f c1 1d bc
       0.013063866 0.03419203 0.033642314 -0.009628578
000170 b3 60 9c 3d 4c c3 06 3d 58 35 de bb f8 2e a3 bc
       0.076356314 0.032901093 -0.0067812614 -0.019919857
000180 5a 5f ad bd 5d fb 32 3e 89 76 cf 3d ad 6c 69 3d
       -0.084654525 0.174787 0.10130031 0.056988407
000190 6b 03 41 be bf eb 44 bd bb 30 87 3d 74 2f 37 bd
       -0.1884896 -0.048076387 0.066010915 -0.04472299
0001a0 0a 63 46 bc 2f 3f df 3c 93 9a 15 bd 71 72 99 bd
       -0.012108574 0.027251808 -0.036524367 -0.07492531
0001b0 0c 06 15 3e 57 b8 8c bd 2f 70 b2 3c 99 f3 d6 bd
       0.14553088 -0.068710975 0.021782009 -0.10495681
0001c0 d9 e6 b5 3c 0a 59 3f 3d 63 52 61 bc b2 6e 4e bd
       0.022204803 0.046715774 -0.013752553 -0.050398536
0001d0 b8 a8 84 3d 92 99 df 3b 75 ac 48 be b4 cc cf bd
       0.06477493 0.006823727 -0.19597037 -0.10146466
0001e0 ba 15 0b bd 02 ef fb bd 8b 6b e0 3d 2f 09 c3 bc
       -0.033956267 -0.123014465 0.10958012 -0.02380809
0001f0 92 a2 51 3a 9c 3d b0 3b a2 20 89 3d 88 e6 be 3d
       0.0007996942 0.005378438 0.06695677 0.09321314
000200 79 97 33 3d af 12 32 3e 5c 4b 06 3e 0e f8 0f ba
       0.043845627 0.1738994 0.13114685 -0.000549198
000210 3d 13 34 3e ad c2 d0 3d b1 bb c5 bd 9d 30 2f bd
       0.17585464 0.101933815 -0.0965494 -0.04277097
000220 f6 03 fb bd d6 b5 a2 bd 52 1f 46 b8 9a 1b 2e bb
       -0.12256615 -0.07944839 -4.7236048e-05 -0.0026566745
000230 f6 10 a7 3d 09 ae 4b 3c 49 76 85 bc c4 b8 37 3b
       0.08157532 0.01243163 -0.016291754 0.0028033713
000240 3c 5f 6b 3d 9f 7d 4c bd 33 fa 64 bd b5 fe c2 bd
       0.05746387 -0.04992449 -0.05590267 -0.09521238
000250 4c 46 c8 3d 42 0a a8 3c 56 46 c4 3d 66 7c 55 be
       0.09779033 0.020512704 0.09583728 -0.20848235
000260 f0 31 b8 3d 85 ff b8 bd 91 2e 02 3e 3c c8 7a bd
       0.089939 -0.090331115 0.12713076 -0.061226115
000270 c3 79 cc 3d 11 3d b9 bd 3a 55 48 3d 55 29 a2 bc
       0.09984162 -0.090448506 0.048909403 -0.0197951
000280 a0 4d f7 bc fa f6 5a 3d fb 60 0b 3d 27 36 92 3d
       -0.030188382 0.05345819 0.034028035 0.07139235
000290 ee cd 86 bd 48 80 15 be 2e 85 df 3d 65 21 57 be
       -0.06582247 -0.14599717 0.10914074 -0.21008833
0002a0 46 d7 a1 3d 39 80 b0 3d 3e c9 ac bc 74 55 81 3d
       0.07902388 0.086182065 -0.021092054 0.06315127
0002b0 1b f9 fb bd ca 92 34 3d f5 6d dd 3d da 11 08 3e
       -0.123033725 0.0440853 0.10811988 0.1328806
0002c0 83 70 c9 bd 3f 7c 9c bc 28 48 15 3d f0 36 d2 bd
       -0.09835913 -0.019102214 0.036445767 -0.10264385
0002d0 be 8f c6 bd ff ac 8b 3d af d6 89 3d 44 9b 01 be
       -0.096953854 0.06820106 0.06730401 -0.12656885
0002e0 90 fe d2 bd 41 53 6f bd b2 4c bc bd d8 c1 c0 bd
       -0.1030246 -0.058429006 -0.09194316 -0.09411973
0002f0 45 6a 70 3d f4 ca 96 3d da 72 66 bd cf 5c 1b 3e
       0.058695097 0.07362929 -0.056261875 0.15172122
000300 38 f8 ec bd 67 a6 af 3d 98 ff ff 3d 17 2f 1f bd
       -0.115707815 0.085766606 0.124999225 -0.038863268
000310 8d b5 8b bd 02 f2 d2 3d e2 4b e7 3d 97 15 04 be
       -0.068217374 0.103000656 0.112937704 -0.12898861
000320 bb 6e 6a 3c 98 ab a1 3d e0 f9 7f 3b 7a dc 7e 3d
       0.014308627 0.07894057 0.003905885 0.06222198
000330 e7 cf 8a 3c 1c 32 51 bd 21 1e 58 bd 28 bb 01 3e
       0.016944839 -0.05107318 -0.05276311 0.1266905
000340 29 95 05 be f9 e0 88 3d 7a ca 88 3d 57 fc c9 bc
       -0.13045181 0.06683535 0.06679244 -0.024656458
000350 c6 04 b0 bd 39 a4 05 3d dc 8b 97 bc 2e b8 bc 3d
       -0.085946605 0.032627318 -0.018499307 0.09214817
000360 93 34 8f 3d b8 91 8c 3d 54 aa 15 be a1 49 c9 3d
       0.069924496 0.06863731 -0.14615756 0.09828497
000370 c1 68 80 3d e7 58 70 bd 39 e2 3e 3d 6f 84 f6 bc
       0.0626998 -0.058678534 0.04660246 -0.030092446
000380 b2 1c 30 3d 13 2b 7d 3d 94 e2 29 3b 6c e0 c8 bd
       0.042996116 0.061808657 0.0025922405 -0.0980843
000390 dd 2b cd bd 08 44 d6 bd dd a3 42 bd d3 2a 29 be
       -0.10018132 -0.10462195 -0.047519553 -0.16520242
0003a0 6d dd 0b bc 66 62 a5 bd 26 e8 f5 3d e1 f6 16 3e
       -0.008536679 -0.08075409 0.120071694 0.14742614
0003b0 29 c7 80 3c b7 1e 84 3d ac 60 06 be b4 6c 8f 3c
       0.015719967 0.06451171 -0.13122815 0.017507888
0003c0 8e 11 b5 3d d1 c8 2e 3c a2 c9 09 be 56 7f a5 bd
       0.08841239 0.010667996 -0.13455823 -0.08080928
0003d0 a2 a4 16 3d 9c 30 d2 bd a7 86 86 be e4 1c a9 bd
       0.0367781 -0.10263178 -0.26274607 -0.082574636
0003e0 b9 38 d7 bd c0 74 ae 3c 77 69 f8 3d 1c 0b 0f bd
       -0.10508866 0.021295905 0.12129491 -0.034922704
0003f0 76 23 f4 bb 21 76 9b bd d9 c7 54 bd 40 52 8d 3c
       -0.0074505163 -0.07590891 -0.051948402 0.017251134

bias f4 [256]
000000 b4 e4 39 bd de 19 87 bd a9 ca 27 bd ec d6 8b bd
       -0.045384124 -0.06596731 -0.040964756 -0.068281025
000010 43 4a 92 bd 01 55 f6 3b aa 36 a2 bd d2 d5 3e be
       -0.071430705 0.0075174575 -0.079205826 -0.18636253
000020 d9 16 0d bd d4 55 0d 3d 87 1a 5d bd bb 67 77 be
       -0.034445617 0.03450568 -0.053980377 -0.24160664
000030 11 8a f5 bd 27 5c 0f bd 1b 69 1d 3d 4f 1d 90 bd
       -0.11989225 -0.034999993 0.038430315 -0.0703684
000040 31 42 6c bd 59 db 46 bd fb 98 a4 3c 24 89 fe bd
       -0.057680313 -0.04854903 0.020092478 -0.12428501
000050 38 6f 84 bd 25 7e ca 3c 6e c1 af bc 6a b3 71 bd
       -0.06466526 0.024718354 -0.02145454 -0.059008993
000060 99 6e 1d be ff e9 28 bd f7 fd 68 bd 58 f4 3d 3d
       -0.15374221 -0.04123878 -0.056882825 0.046375602
000070 67 ec a1 bc 16 bb 8a bd 91 18 ba bc 0e ca de 3d
       -0.019766046 -0.06773965 -0.022716792 0.108783826
000080 86 31 98 bd a3 0d 3b 3b fb 32 7e bd c2 c6 8d bc
       -0.07431321 0.0028542064 -0.062060338 -0.01730669
000090 32 69 3c bd 3a d9 de 3c 29 5e 4c bd 5e 07 17 bd
       -0.04599876 0.027203191 -0.049894486 -0.03687226
0000a0 50 03 1b bd 9a 4e 12 be 72 e7 0d be f3 79 5d 3b
       -0.037844956 -0.14287797 -0.1385782 0.0033794611
0000b0 33 e7 01 bd aa 47 71 bd ec dc 1d 3c 02 d1 a8 bd
       -0.03171463 -0.058906235 0.009635191 -0.0824299
0000c0 f5 33 5a bd eb e2 89 bd 22 4a 32 bd 73 2b 2e bd
       -0.053272206 -0.06732734 -0.04352773 -0.042521905
0000d0 54 40 3f be 1c 28 26 bd f2 71 f7 bc 79 13 0b bc
       -0.18676883 -0.040565595 -0.0302057 -0.008488529
0000e0 f1 67 0b bd 17 81 98 bd a8 83 a6 bd 74 0d e1 bc
       -0.034034673 -0.07446497 -0.0813058 -0.027472235
0000f0 47 4b 62 bd 02 7e 80 bc 6b f2 6c bd 95 4e cc bd
       -0.05524757 -0.015685085 -0.057848375 -0.09975926
000100 c6 b6 d5 bd 8e 3e 0b 3d 73 23 85 bd 8c 8d ac bd
       -0.10435252 0.033995204 -0.06500902 -0.084254354
000110 59 cf 21 bd 9f 54 55 bd 31 af 1b bd eb 90 01 bd
       -0.039504383 -0.052082654 -0.038008872 -0.031632345
000120 c3 07 f0 bd e5 c1 9a bd 25 aa 3b bd 95 c8 86 bd
       -0.117202304 -0.07556514 -0.04581656 -0.06581227
000130 17 bc a3 bd 6b 06 6d 3d 33 95 e0 bd 6c fb 49 bd
       -0.0799486 0.05786745 -0.109659575 -0.04931204
000140 1e 53 36 be d2 7e f3 3c 38 a2 23 bd 81 da 8c 3c
       -0.17805144 0.029723559 -0.039949626 0.017194035
000150 39 ea a5 bd 7f fb 23 3d 5f ee 6f bd 69 11 d4 bc
       -0.08101315 0.040034767 -0.058576938 -0.025887208
000160 87 2d 28 bd 88 8a cd bd 15 39 2b be f1 10 02 be
       -0.041059043 -0.10036188 -0.16720994 -0.12701775
000170 a8 2e d2 bb d3 c5 c4 bd 6d d6 37 bb f1 db a4 be
       -0.0064142533 -0.096080445 -0.0028051392 -0.32199052
000180 15 cf 52 3d d1 e2 40 bc 29 8b 32 bd df 1c 5c 3c
       0.05146702 -0.011772827 -0.043589745 0.013434618
000190 fe cc 5b bd f3 6d 42 be 43 42 f2 bd 67 0a d0 3b
       -0.053662293 -0.18987255 -0.11829045 0.0063488963
0001a0 8a d3 59 3b 37 a3 01 bb 66 ec 0c bc 60 5b 86 3d
       0.003323766 -0.0019781122 -0.008601284 0.06560397
0001b0 eb c1 18 bd 38 14 3f be 4f cd f0 3c b1 01 82 bd
       -0.03729431 -0.18660057 0.029394774 -0.06347979
0001c0 70 b0 f5 3c 5a 80 fb bd f1 72 82 bb e7 98 0a be
       0.029991359 -0.122803405 -0.0039809872 -0.1353489
0001d0 22 6c aa bc 30 34 0f be e5 a7 1d 3d b8 7f b7 bd
       -0.020803515 -0.13984752 0.038490195 -0.08959907
0001e0 60 74 b8 bd 3b f8 c7 bd 93 d2 b1 bd 67 3f da 3c
       -0.09006572 -0.09764143 -0.08682742 0.02664156
0001f0 07 be 85 bb 65 d2 48 3c 9f 34 0f 3d bb 9d 20 bc
       -0.004081491 0.012257193 0.034962293 -0.009803231
000200 22 0a 16 be 52 3b 34 be 85 78 a2 3c 25 55 c4 bd
       -0.14652303 -0.17600754 0.019832859 -0.095865525
000210 3f bb 9a bd e7 53 49 be f8 e9 c1 bc e7 c4 93 bd
       -0.075552456 -0.19660912 -0.023671135 -0.072152905
000220 58 68 09 bd aa 48 9f bd 82 8e 1e bd 40 c1 85 bd
       -0.033546776 -0.077775314 -0.038710125 -0.06531
000230 0f a6 e6 3c b8 05 c2 bc f9 e8 c3 bd eb 10 e7 bc
       0.028155355 -0.023684368 -0.095659204 -0.02820631
000240 92 4d 7e bd 8b 5f da bd bc eb 8b bd 25 e0 8d bc
       -0.062085696 -0.106627546 -0.06832072 -0.017318795
000250 5f a5 fa bb fc 1f 33 be 0b eb 6d 3c ad d9 87 bc
       -0.0076491083 -0.1749267 0.014521371 -0.016583288
000260 98 54 85 bd ad 30 e8 bc 50 30 1d 3d cc a3 d4 bd
       -0.065102756 -0.028343523 0.038376153 -0.10382804
000270 e4 7c 39 bd 3d db 09 bd 33 fd cc bd 54 be 3c bd
       -0.04528512 -0.033656348 -0.100092314 -0.04607995
000280 c7 4c a8 3c e0 df bf bc 4c 06 fb bd 6c 0e c3 bc
       0.020544423 -0.023422182 -0.122570604 -0.023810588
000290 5c 01 2e be d0 52 1e be a6 01 14 be 79 b3 4e bd
       -0.16992706 -0.15461278 -0.14453754 -0.050464127
0002a0 0e 08 49 bb 9e 2d 96 bc ff b6 b8 bc 38 f6 cb bd
       -0.0030674967 -0.018332299 -0.022548197 -0.09959072
0002b0 01 64 97 3c c6 d9 16 bd 6f 83 5d 3c b1 7f 81 bc
       0.018480303 -0.03682878 0.013520106 -0.015807958
0002c0 70 27 a9 bd b6 a8 86 be 8e 23 b2 bd ec 9e d5 bd
       -0.08259475 -0.2630059 -0.08698188 -0.104307026
0002d0 aa 75 70 bd d5 0c d1 bd 6e ff 8b 3b 58 d2 bf 3d
       -0.058705963 -0.10207526 0.004272393 0.09366292
0002e0 06 f3 a8 bd 9f 0c a8 3d b3 42 a2 bd e7 fb b0 bd
       -0.08249478 0.08205532 -0.07922878 -0.086417966
0002f0 98 62 c8 bd 55 9b 70 3c eb da fa bc 96 e7 b0 bc
       -0.0978443 0.014685472 -0.030621966 -0.021594804
000300 f2 56 a8 bd 8c f7 35 bd 5d 67 22 bd 97 e4 b7 3c
       -0.082197085 -0.044425532 -0.039649356 0.022447867
000310 16 49 b9 bd 6c d3 c4 bd 71 5f 42 bd 8e 59 9e bd
       -0.09047143 -0.09610638 -0.0474543 -0.07731925
000320 0f 73 10 be 11 df 4f bd 2d fd b5 bd df 2e 53 be
       -0.14106391 -0.050749842 -0.0888618 -0.20623349
000330 23 8b 4e 3b 51 27 cf bd 83 38 16 be 0e 7e bf bd
       0.0031516037 -0.10114921 -0.14669995 -0.09350215
000340 1a 91 9f 3d e4 49 08 bd 26 21 75 bc 0b 21 21 be
       0.07791348 -0.033273593 -0.0149615165 -0.15735261
000350 a3 c8 10 bd ec 88 82 bd ea 1f b8 bd 0c ed 64 bd
       -0.035347592 -0.06373772 -0.08990462 -0.055890128
000360 b9 ce 52 be ec 17 22 3d dc 6e 81 3c db cd 5e 3a
       -0.20586671 0.039573595 0.015799932 0.0008499303
000370 ec 02 58 be 67 29 9e bc 74 02 be bd e0 81 24 bd
       -0.21094865 -0.019306852 -0.09277812 -0.04016292
000380 b8 fb 6e 3d ef d4 ff bd d1 51 66 bc c7 cc 65 bd
       0.058345526 -0.12491786 -0.0140575925 -0.056103494
000390 0c 16 2a 3d 3c 04 f2 bd 97 9d ee bd c2 fb ed bd
       0.04152493 -0.11817214 -0.116511516 -0.116202846
0003a0 df eb 00 be 18 44 ad bd f7 fa 25 be 80 72 1e be
       -0.12589978 -0.084602535 -0.16209017 -0.15473366
0003b0 b4 db 49 3c c4 55 c2 bc 00 5b ff bd 0d 7a 83 bd
       0.012320448 -0.023722537 -0.12468529 -0.06419764
0003c0 4f 2f 8c bd 7b a1 dc bc 17 81 1e be 0d 2e 2a be
       -0.06844961 -0.026932469 -0.15478931 -0.1661913
0003d0 83 db a2 bd c4 16 ca bd e3 bc 87 be d4 ac 01 bd
       -0.07952025 -0.098676234 -0.26511297 -0.031658962
0003e0 7f 3e e2 3b dc 48 d2 bd 93 b4 bf 3c 06 2c 2d bd
       0.006904423 -0.10267803 0.023401534 -0.042278312
0003f0 a7 bf e5 bd ba ae 9b bd 94 6c ed bc 1f 56 19 bd
       -0.112181954 -0.07601686 -0.028982438 -0.037435647

weight f4 [128, 256]
000000 13 f1 c7 bd 56 1b b5 bc f4 47 1d be ce 33 91 bd
       -0.09762778 -0.022107761 -0.15359479 -0.07089959
000010 24 fc 76 3b f8 52 b4 3c d8 62 9b bd 23 e5 37 bb
       0.0037686909 0.022012219 -0.07587212 -0.002806016
000020 72 2d 2f bd 31 d6 ef 3d c4 5e ac 3d 17 72 e3 3d
       -0.04276795 0.11710776 0.084165126 0.11105745
000030 7a fa 65 bc 09 e8 9c bd 66 56 7f 3d c3 9d 88 3c
       -0.014036769 -0.07661445 0.062338255 0.01667679
000040 63 a0 a8 3d 92 ad 28 3b 3e 0c 10 be 4e 6c a7 3d
       0.08233716 0.0025738222 -0.1406717 0.08174954
000050 dd 21 34 bc 8d c9 6c 3d fb 7f 06 bd a1 39 11 be
       -0.010994402 0.0578094 -0.032836895 -0.1418214
000060 33 fe a7 bd ef 08 a1 bc d5 bc 9d 3b db b5 bf bd
       -0.082027815 -0.01965758 0.0048137703 -0.09360858
000070 59 8f 22 be 79 c9 cc bc a0 93 71 3d 50 9f 9b 3d
       -0.15874995 -0.024998413 0.058978677 0.07598746
000080 07 1f 46 bd 6b e9 9a bc b6 bc 80 3c 26 bd 2d bd
       -0.048369434 -0.01891013 0.015714984 -0.042416714
000090 b8 5a b6 bc 6f 01 0b 3d 6a 70 a1 bd 99 45 e7 3d
       -0.022260055 0.033936914 -0.078827694 0.112925716
0000a0 7c f0 14 3d 64 5d 77 bc 00 be ab 3d 9f 47 99 3b
       0.036362156 -0.01509795 0.08385849 0.0046777274
0000b0 ce 1d 03 be 96 20 63 bd 81 54 c9 bb 1b aa 02 be
       -0.12804338 -0.055451 -0.006144107 -0.12760203
0000c0 cb 2b 02 ba 74 dd bb 3c ce 2d f4 3d 37 2c 6c 3c
       -0.0004965632 0.022932746 0.11922799 0.0144148385
0000d0 6d 96 ac bd df 47 da 3d 3b ea 78 3c b0 c4 12 3c
       -0.08427129 0.106582396 0.015192564 0.008958027
0000e0 06 f6 18 3d f9 21 23 be 95 71 e1 3c 31 8a b4 3d
       0.037344 -0.15930928 0.02751998 0.088154204
0000f0 69 66 dd 3c 49 2d 11 3d 47 c9 3b bc d8 90 44 3c
       0.027026372 0.035443578 -0.0114615625 0.011997424
000100 d6 83 8a 3d 5c f2 63 3d 4c a5 d5 3c 03 09 87 bc
       0.06763427 0.055651054 0.026079796 -0.01648379
000110 90 da ae bd 49 74 10 be 8f 85 78 3c fb 0b ab 3d
       -0.08537781 -0.1410686 0.015168562 0.083518945
000120 75 d8 51 3a 69 f3 b6 bd 8b 94 7e 3d 84 39 b3 bc
       0.0008004972 -0.089331456 0.06215338 -0.021878012
000130 b7 17 29 bd 17 23 26 3e 9b a4 53 3c ce 20 37 3d
       -0.04128238 0.16224323 0.012917663 0.04470902
000140 6b 6a 03 3e 9b f9 27 3d 3e a2 fc 3d b0 0b b5 bc
       0.12833564 0.041009527 0.12335633 -0.0221003
000150 89 3d 67 3d a9 e2 c3 bc 6c fc ea bc 4f 5c c8 bc
       0.05645517 -0.02391179 -0.028684817 -0.024458079
000160 ab 1e 67 bd e8 37 15 3e 3a d7 3e 3d 54 c5 13 bd
       -0.05642573 0.14572108 0.046591975 -0.03607686
000170 ea ed 70 3d 58 d5 ca bd f5 bc 64 bd 8d b5 12 bd
       0.058820643 -0.09903973 -0.055844266 -0.03581767
000180 c0 58 8e bd e7 c7 41 bc e4 56 20 bc 95 8f 04 3d
       -0.069505215 -0.011827446 -0.009786341 0.032363493
000190 c2 29 ac bc 0e f9 d9 bc 7b 77 01 be e7 89 94 3d
       -0.021016005 -0.026608016 -0.12643234 0.07252865
0001a0 4d 29 04 be 49 e8 b2 3d bc 1c 4f bd 03 79 60 bc
       -0.1290638 0.08735711 -0.050564513 -0.013700726
0001b0 f4 81 fc 3d dc 86 a1 3d b6 1b b2 bc d3 5c 83 bd
       0.12329474 0.078870505 -0.02174173 -0.06414189
0001c0 a5 20 89 bd ef 09 15 3b d7 62 ac bd ce e3 2c 3d
       -0.066956796 0.0022741517 -0.0841729 0.04220944
0001d0 a9 52 e0 bd 8f b8 a7 3d 05 a3 c3 bd c8 05 5d bc
       -0.10953266 0.08189499 -0.09552578 -0.013490148
0001e0 4f 3e 1c 3d 4e ea 8f bd 9a 0b f7 bc 37 db f4 3c
       0.03814536 -0.07027112 -0.0301569 0.029889686
0001f0 81 ef 82 3d 91 2f 8e bc 2f bf 12 bd 2c 88 8f 3d
       0.06393338 -0.017356666 -0.035826858 0.070083946
000200 43 d0 ba 3d 2c 17 20 3d d3 6d 67 bd 2d df 84 bd
       0.09121754 0.0390846 -0.05650122 -0.0648788
000210 2c f2 a6 3d 5a ad 8a 3d 52 dc 80 bd 24 67 ef bc
       0.08151659 0.067713454 -0.06292023 -0.029223986
000220 11 23 99 3d 88 08 9f 3c 12 53 8c 3d 48 6f 1b bc
       0.074773915 0.019413248 0.06851782 -0.009486981
000230 62 1c 0c 3d bf 52 9b bd c6 60 3c bc 08 ae 44 bd
       0.034206755 -0.07584142 -0.011497682 -0.04801753
000240 a9 26 0b bd 77 1d 49 bd 0d bf fe bd e0 3f 0f bd
       -0.033972416 -0.049100365 -0.12438784 -0.034973025
000250 65 3a 39 bd f3 98 8b 3d 91 8e 85 bd 47 97 ee bc
       -0.045221705 0.06816282 -0.06521333 -0.029124869
000260 be a2 e2 3d a5 dc b2 bb 09 a6 9a 3c 1d 93 29 3d
       0.11066197 -0.005458432 0.018878 0.041400064
000270 69 61 50 bb bc 58 30 3e c9 80 72 bd c3 ab dd 3c
       -0.0031796342 0.1722135 -0.05920485 0.027059441
000280 b7 2a 80 3c ab 92 44 3b bc b4 35 bd 42 7a 2a bd
       0.015645368 0.0029994647 -0.044361815 -0.0416205
000290 eb f3 98 3d e9 7d 39 bd 86 76 27 bc 61 3c c1 bc
       0.07468399 -0.045286093 -0.010221129 -0.023588361
0002a0 eb 51 c1 3d a8 5b d6 bc a1 8d 01 bd 19 9d b3 3c
       0.09439453 -0.026166752 -0.03162921 0.021925496
0002b0 31 0c 25 bc 1b 34 0b bd 59 ce ae 3d 54 e4 82 3d
       -0.010073707 -0.03398524 0.085354514 0.063912064
0002c0 bc 47 f5 bc af 55 82 bc 59 32 0d bd 61 32 d9 3d
       -0.029941432 -0.015909998 -0.034471843 0.10605312
0002d0 6d 40 d0 3c 03 26 af bd 7a b1 e0 3d 84 f9 52 bd
       0.025421346 -0.08552172 0.10971351 -0.051507488
0002e0 66 42 51 3d 42 08 8a bd 99 ea 4c bd 6d 7a 0c 3b
       0.051088713 -0.06739856 -0.050028417 0.0021435276
0002f0 d1 97 4e bd 17 df 3a bb c7 1a d7 3b 9b 2d 90 3c
       -0.050437752 -0.002851432 0.0065644714 0.017599871
000300 a5 1f 72 3d fe 56 39 3d 82 39 ef 3c be f3 b8 bd
       0.05911221 0.045248978 0.029202227 -0.09030865
000310 33 1d aa 3c 8f 62 53 bc 72 64 a5 bc 5e 39 30 bc
       0.020765876 -0.012901916 -0.020189498 -0.010755865
000320 95 48 dc 3c 56 9c 5a 3d 8c 7e b7 3b 13 e8 74 bd
       0.026890079 0.05337175 0.0055998024 -0.059791636
000330 af 37 8d bd a9 08 6b bd 5c f5 18 bd a8 39 03 3d
       -0.068953864 -0.057381306 -0.037343368 0.032037407
000340 8e 23 75 bd 63 e6 e4 3c 78 a5 78 3c eb fb f5 3c
       -0.05984836 0.027941888 0.01517617 0.03002735
000350 d6 70 bc bd 38 1a 77 b9 44 17 1c bd 84 57 f2 bc
       -0.09201209 -0.00023565523 -0.038108125 -0.029582746
000360 8a 10 16 3d 7a ba 43 3d 6e 3b d0 bd 45 1e b5 3c
       0.036636867 0.04778526 -0.10167585 0.02210916
000370 d9 fb 8c bd fc 78 b3 bc 36 32 d0 3b d8 89 b2 3c
       -0.06883974 -0.021908276 0.006353642 0.021794245
000380 71 3d 9e 3d 54 38 5d bd fa a5 8b bd b6 ed 25 3d
       0.07726563 -0.054008797 -0.06818767 0.040509902
000390 1a 4a db bc 4c 9e bb 37 cc a5 95 3c 37 f9 26 be
       -0.026768733 2.236585e-05 0.018267535 -0.16306005
0003a0 de 3b 00 3d ca bc 31 be 97 f8 21 3d 90 f2 e9 bd
       0.031307094 -0.17357174 0.039543714 -0.11423218
0003b0 bb 85 10 be b7 02 18 bd d1 56 ed 3d b4 92 e2 3c
       -0.14113514 -0.037111964 0.115888245 0.027657844
0003c0 0f 68 b5 3a 41 f9 ab bd 9a a4 9e 3b 93 d3 90 bd
       0.0013840216 -0.08397151 0.0048413994 -0.070716046
0003d0 ba b5 9c bd 60 b2 92 bd 39 98 77 3c 8b bb 9b bb
       -0.07651849 -0.071629286 0.015111976 -0.0047525815
0003e0 f7 cd f9 bc cd e8 55 3d a4 a4 48 3d 6d ae c4 3d
       -0.03049372 0.05222397 0.04898514 0.096035816
0003f0 6e b2 d4 bd d6 d8 ab bc f0 66 19 bd 8d 05 eb bd
       -0.10385595 -0.020977419 -0.037451684 -0.11475668

bias f4 [128]
000000 76 54 2a bd bf fe 51 be c2 b3 33 be 5e 58 75 3c
       -0.041584454 -0.20507334 -0.17549041 0.014974682
000010 45 06 e6 bd 14 df cf 3d 66 92 12 be 50 3d 62 be
       -0.112316646 0.10149971 -0.14313659 -0.22093701
000020 4c 9b 65 bd 1f fe 65 bd c0 a4 2e be b4 84 3a bd
       -0.056056306 -0.056150552 -0.17055035 -0.04553671
000030 1b 58 7b 3d 62 90 69 3d 6b 37 22 bd 7a a1 fb bd
       0.06136332 0.05702246 -0.039603632 -0.122866586
000040 1a 2e 29 3d 55 00 3a bc 6b ae 2b be 4c 84 3b be
       0.04130373 -0.011352618 -0.16765754 -0.18312186
000050 93 a8 3c 3c 73 83 01 be 85 db 0b 3e 27 5f 85 3d
       0.011514801 -0.126478 0.13657959 0.065122895
000060 2a b1 69 be ac a2 99 bc b5 39 01 3e af 54 b4 3d
       -0.22821489 -0.018754326 0.1261967 0.088052146
000070 4c a5 af 3d 5d ee 9a bc 7c ba 23 bd f0 6a b8 bd
       0.0857645 -0.018912489 -0.039972767 -0.09004772
000080 e0 3a c7 bc 07 de d6 3c 31 5c cc bc 02 cb cf bd
       -0.024320066 0.026228918 -0.024946304 -0.101461425
000090 a9 8a 31 bd 4b c8 7b 3d fa f5 fc bd 90 a5 1e 3d
       -0.043345127 0.06147031 -0.12351604 0.03873211
0000a0 c9 fd c2 bd 47 94 0b be d5 b4 f1 bd 44 37 ad bc
       -0.09521062 -0.13630782 -0.11802069 -0.021144517
0000b0 82 d5 49 be af 74 67 bd 00 bd 6b 3c c0 72 b0 3c
       -0.19710353 -0.056507763 0.014388323 0.021539092
0000c0 3c 8e b3 bd 00 89 5d bd 88 20 04 3b cb 4e 5a bd
       -0.087673634 -0.05408573 0.0020160992 -0.0532978
0000d0 1e 3a af 3c 2c 06 56 3d e7 90 2a bc 2e a6 3f 3c
       0.021390017 0.05225198 -0.010410524 0.011697335
0000e0 6c 83 ee 3c 4e ac 1d bb bf 45 52 bd 16 db 2e bd
       0.029115401 -0.0024059 -0.051336046 -0.042689405
0000f0 f5 53 cb 3d 93 40 3e bc 7a 4d e0 bd 04 b5 d2 bd
       0.09928123 -0.011612075 -0.109522775 -0.10288432
000100 26 6f b8 3d 6d eb c9 bd 9f a7 9e 3d 9f d6 68 3d
       0.09005575 -0.09859357 0.07746815 0.056845304
000110 ea de 5e 3d b8 df f1 ba c1 5f d0 bd 83 6f 55 be
       0.054411806 -0.0018453514 -0.101745136 -0.2084332
000120 9d 8e 9a 3d 82 09 2f bd 77 1c 6e bd 50 1a 9c bd
       0.075467326 -0.042733677 -0.058132615 -0.07622206
000130 37 db 18 bc 92 7d 38 be aa 47 64 3c 08 c5 aa bd
       -0.009329609 -0.18016651 0.013933102 -0.08338362
000140 20 51 46 be a8 76 c3 3d bd 79 c2 bd e0 e4 bb 3d
       -0.19366884 0.09544116 -0.09495876 0.09174514
000150 fb 64 4f bd 59 14 d7 3b 28 32 a2 bc 9b 06 89 bb
       -0.05063341 0.006563705 -0.019799307 -0.0041816956
000160 c6 db 88 3d 74 dd 02 be 35 ab bd bc 9f 00 0a bd
       0.066825435 -0.1277979 -0.023152927 -0.033692
000170 af 2a 3d be a6 30 81 bc 48 be 0c be f4 cd 85 3c
       -0.18473314 -0.015770268 -0.13744462 0.016333558
000180 cd 67 d3 bc 74 4d d5 3c af a5 a5 be 4b 79 c5 bd
       -0.025806332 0.02603791 -0.3235297 -0.096422754
000190 a3 2d f2 bb ed f0 0e be 1b b6 b8 bd 70 9b a9 bc
       -0.007390694 -0.13959093 -0.09019109 -0.020704001
0001a0 78 5a 1b be 5a 97 3f bd ad 38 8e be 10 47 94 bc
       -0.1517123 -0.0467752 -0.27777615 -0.018100291
0001b0 d9 1a a0 bc 6c 06 cc bd 05 df 36 be ef 78 a2 be
       -0.019544052 -0.099621624 -0.17858513 -0.3173289
0001c0 79 30 8c bd f1 ef dc bd d2 9c 94 3d 43 2e 0e be
       -0.06845183 -0.10787953 0.072564736 -0.13884835
0001d0 fd fe 83 bd 51 10 c0 bd 5d 75 55 bc 96 21 c8 3c
       -0.064451195 -0.09378112 -0.01302847 0.024430078
0001e0 0a 46 18 bd fb 41 dd bd 9f 35 f0 bd 90 82 81 be
       -0.03717617 -0.108036004 -0.117289774 -0.25294924
0001f0 dd c5 4d be 7f 8e 9f 3d 59 51 e6 bd cf 22 06 3d
       -0.2009501 0.07790851 -0.112459846 0.03274804

weight f4 [12, 128]
000000 b6 98 bb 3c 08 c4 78 3d 84 7f 4d bd 06 5d 26 bd
       0.022899967 0.060733825 -0.050170437 -0.040616058
000010 b7 e8 86 bc f3 e1 08 3d a8 a3 5e 3c b8 13 1c 3d
       -0.016468389 0.033418607 0.013588823 0.038104743
000020 5e f4 bc bb c5 5a 2e 3c 53 bc d8 3c fe 4e a9 3b
       -0.0057664355 0.010641758 0.026456987 0.0051668873
000030 a8 f0 dd ba 2b 43 7b 3c c5 04 40 bc 07 86 73 bd
       -0.0016932683 0.015335838 -0.011719887 -0.05945399
000040 bd 8b 4a 3c 92 03 db 3c f3 e1 0d bc a9 ca 0f 3d
       0.012362418 0.0267351 -0.0086598275 0.03510538
000050 e9 78 f7 3c 70 e2 04 bd 88 75 65 3d 7c 8c 81 bc
       0.030209022 -0.03244251 0.05602029 -0.015814058
000060 fd 44 e3 bd f4 f5 4a 3d 22 1d 53 3b 94 d6 3c bd
       -0.11097143 0.049550965 0.003221341 -0.046103075
000070 b9 0c ae 3c f1 38 a0 3d e5 70 9a bc 46 eb 67 3d
       0.021246301 0.07823361 -0.01885266 0.05662086
000080 79 70 b0 bb f6 92 b5 bc 06 7d c9 3a ea 6a 65 bd
       -0.0053845015 -0.022164803 0.0015372343 -0.056010164
000090 c8 47 a5 bc 1b aa cb bc c7 af a7 3d 99 93 2b bc
       -0.02017583 -0.024861386 0.08187824 -0.010472202
0000a0 e7 6d 3b bb ad 73 d2 3d 29 cc 55 bc 56 c5 2f bc
       -0.0028599442 0.1027597 -0.013049164 -0.010728201
0000b0 97 88 52 bb d0 fd fe 3a 6b e4 bb bc 41 87 95 3d
       -0.003212487 0.0019454304 -0.022936067 0.07301188
0000c0 6b 33 4e 3a 1b 3c 45 bc 34 1d be 3c 75 d3 55 3d
       0.0007865938 -0.012038256 0.023207285 0.052203614
0000d0 76 74 20 3d 24 23 c5 3c 65 1a 6b 3d 51 5f 40 3b
       0.039173566 0.024064608 0.05739822 0.0029353688
0000e0 eb dd 84 bb 30 c1 77 bb 66 4d b0 bd 17 7d 4d bd
       -0.004054775 -0.0037804358 -0.086085126 -0.050168123
0000f0 6d 9b 1f bc 96 3d 63 bd ae 6c c6 bc eb 04 53 3b
       -0.009741646 -0.055478655 -0.024221744 0.0032198976
000100 b4 24 c3 bb 29 24 33 3d ec a6 52 bd 3d 86 92 ba
       -0.005955303 0.043735657 -0.05142872 -0.0011178922
000110 9c 07 69 3c f6 4e 34 3c 37 6e 40 3d 84 ca ad 3d
       0.014223006 0.011005154 0.04698011 0.084858924
000120 56 ef a8 bd 65 5a e0 3c a6 e7 b2 bc 62 20 18 3d
       -0.08248775 0.027386853 -0.021838974 0.037140258
000130 42 c6 82 3c 9d 7c f8 3c 87 fb ba 3c dc d5 42 bd
       0.015963677 0.030332858 0.022825016 -0.047567233
000140 25 61 49 3d 11 c2 c8 bc 1b 75 8d 3d 75 2e 3f 3d
       0.04916491 -0.0245066 0.06907102 0.046675164
000150 bf 5f 4d bc f8 59 11 ba 4f b8 6c 3b 42 e4 9d bd
       -0.012535035 -0.00055447174 0.0036120599 -0.07709552
000160 f5 16 e9 bc 94 e1 b3 3b 19 a6 44 3d 9c a4 16 3c
       -0.02845333 0.0054895375 0.048009966 0.009194519
000170 07 a5 ef 3c 77 99 c8 bd 80 85 1f bc ab 31 b9 3c
       0.029253496 -0.09794896 -0.009736419 0.022606691
000180 b4 00 b6 3a 8f e6 8e bc 48 fb 4f 3d 68 8f 13 bb
       0.0013885708 -0.017443923 0.05077675 -0.0022515897
000190 b9 58 b3 3b 7a 79 b0 3b ac cf bd bb 7d 4e 10 bd
       0.005473223 0.005385575 -0.0057925787 -0.035231102
0001a0 d3 f2 53 3d 13 e0 91 bc 52 35 9e 3c de 60 be 3c
       0.051745247 -0.017807042 0.019312534 0.02323955
0001b0 f7 b4 80 bb ab 15 05 bc 5e 29 31 3d 2b 36 35 3c
       -0.0039278227 -0.008122842 0.04325234 0.011060278
0001c0 ff 4f 99 3c b4 d7 91 bd 1b 92 76 bd 7c cc 66 3b
       0.018714903 -0.0712122 -0.06019793 0.0035217097
0001d0 3e 9b 81 bb 79 9b 6f bb 92 7f ee b9 dc 7f 49 3d
       -0.003955274 -0.0036561175 -0.00045489945 0.0491942
0001e0 cb f6 0d bd c6 ac 19 3d db d6 fa bc 89 45 f7 bc
       -0.03465919 0.037518285 -0.03062003 -0.030184524
0001f0 e9 05 f6 3c 1a 24 92 3c 3e 63 d9 3c 1e 13 39 bd
       0.030032115 0.01783948 0.02653658 -0.045184247
000200 c7 d6 da 3c ee da 4c 3c b2 90 18 bd ae 4a ba bc
       0.026713742 0.012503369 -0.037247367 -0.022740688
000210 51 74 16 3d 38 d8 7a bc 4d eb 08 bd fd ae f7 bd
       0.03673202 -0.01531034 -0.033427525 -0.12093923
000220 59 ab fe bc b4 00 cc 3a a7 41 e4 bc 90 dd 44 3d
       -0.031087564 0.0015564174 -0.027863337 0.04806286
000230 c1 ef de 3c 4f 70 23 bd 2c 19 56 bd de 8f 05 bd
       0.027213933 -0.039902028 -0.0522701 -0.032607906
000240 17 3e 5e 3c ce c2 6a bd 7f d6 2c bd 38 37 d8 3d
       0.013564608 -0.057314686 -0.042196747 0.10557407
000250 5d dd 09 3d 9a 9b 12 be 3d 09 53 3d 88 2e d5 3c
       0.033658374 -0.1431717 0.051522482 0.026023164
000260 15 89 de bc 8c 99 08 3e 0f ca 89 3c 48 15 26 bd
       -0.027164975 0.13339823 0.016819982 -0.04054764
000270 fb e7 23 bd 12 05 68 bc 07 c8 92 bd 32 e1 47 3a
       -0.040016156 -0.014161365 -0.071670584 0.0007624804
000280 05 e5 2d bd 3c a9 f3 bc 03 8e 69 3b 7c 5d 01 be
       -0.04245474 -0.029743783 0.0035637624 -0.12633318
000290 62 19 73 3c 0f 16 91 3d 18 85 18 3d 40 70 1c 3d
       0.014837595 0.070842855 0.037236303 0.038192987
0002a0 1e c5 89 bd 93 2d 21 bd b4 8d 31 3d 21 bb 39 3d
       -0.0672705 -0.039350104 0.04334803 0.045344476
0002b0 d4 fc 52 3d 4f 50 45 3d 55 a7 6f bd 0a cf 1c 3c
       0.051510647 0.04817229 -0.05850919 0.009570846
0002c0 ad 22 52 3d 86 d9 08 bd fd 48 8d bc c9 dc 1b 3d
       0.0513026 -0.03341057 -0.017246718 0.038052354
0002d0 3d cf d1 bd d1 6a 58 bd 6a a8 2c bc 82 78 2f 3d
       -0.10244606 -0.052836243 -0.0105382 0.042839535
0002e0 98 04 94 3d 64 1a ae bc ad db 3a bc b7 db 16 3c
       0.07227439 -0.021252818 -0.011404914 0.009207658
0002f0 2f a0 8a 3d 63 13 d5 3d 06 67 01 bc a3 a0 28 3d
       0.06768834 0.10404088 -0.007898098 0.04116882
000300 ec 25 47 bc 5e f4 19 bc 29 d9 7e 3c 33 9b ce 3c
       -0.012155037 -0.009396641 0.015554705 0.02522049
000310 63 81 80 bd 5e f6 a5 3d 3b 78 03 3d dd 72 40 bd
       -0.062746786 0.081036314 0.032097083 -0.046984542
000320 ad 71 8a bc 06 4c e5 3c 19 44 90 bd 03 97 81 bc
       -0.016899908 0.027990352 -0.070442386 -0.015819078
000330 7c 8b 51 be 99 bc 6d bd 37 f6 56 3c ce 0c 45 bc
       -0.20463365 -0.05804119 0.013120226 -0.012026979
000340 61 7d f1 3c 7d 5d 1c 3e 76 ea 10 3d 45 c8 12 bd
       0.02947873 0.15270038 0.03537985 -0.035835523
000350 76 38 26 3b b2 91 4e 3d 41 7d a5 3c 82 39 2c 3d
       0.0025363243 0.050431915 0.020201327 0.04204703
000360 07 32 6e 3c 52 15 03 bc dc 46 de 3c 04 42 6f 3d
       0.014538295 -0.008000689 0.027133398 0.058412567
000370 14 9a 51 bc 89 b9 fc 3d d7 99 5f bb aa c1 f9 bc
       -0.012793083 0.123400755 -0.0034118795 -0.030487854
000380 27 72 d9 bc 89 94 44 3d 6e c7 01 bd 6a e3 33 bc
       -0.02654369 0.047993217 -0.03168433 -0.010979513
000390 af 8b 62 bd 89 61 26 3d 58 23 ba bc d3 f8 d3 bd
       -0.055308994 0.04062036 -0.022721931 -0.10350194
0003a0 28 b1 e9 bc dc ef 64 3c ee 5b d7 3c f8 19 53 3c
       -0.028526857 0.013973203 0.026288953 0.012884609
0003b0 a1 a8 f6 3c 2e c0 76 bc 74 84 47 3d 0e b9 c4 bc
       0.030109705 -0.015060468 0.0487103 -0.024014022
0003c0 de 02 bc bc 31 74 38 bc 51 18 5d 3c 13 e7 48 3d
       -0.022950586 -0.011258171 0.013494567 0.049048495
0003d0 2c 35 47 3d ac ed 04 3c c2 74 15 3d ae dc bd bc
       0.048634693 0.008113306 0.036488302 -0.023176517
0003e0 62 3e 0d bb 29 07 1e bc 23 61 89 bc ee a9 ba ba
       -0.0021552076 -0.009645262 -0.016769951 -0.0014241317
0003f0 c0 1e e3 3c c8 31 c5 bb dc 33 f5 bc 9e 4b 46 3c
       0.027724624 -0.0060178973 -0.029931955 0.0121029895

bias f4 [12]
000000 ab 7a 09 bc ef 69 a9 3d 8e a5 90 3d 5b 80 1d 3d
       -0.008391063 0.08272158 0.07062827 0.038452487
000010 0c e4 c4 3d cb 77 37 3e 6b bf 83 bd 5c 71 9a 3e
       0.09613809 0.17916791 -0.064329945 0.3016461
000020 24 1c 3b 3e 1f 39 6d 3d 93 11 60 3e da 16 0f 3e
       0.18272454 0.057915803 0.21881704 0.13973561
