config/robot_1.pt (torch, 786952 bytes, 8 tensors)

weight f4 [512, 54]
000000 02 7b 82 be 90 e0 78 3d d4 1a 1d bf be 0b c4 3e
       -0.25484473 0.060761034 -0.6136906 0.3829021
000010 97 c5 b6 be fa fd 9a 3d 27 be 7a be ec 66 a9 be
       -0.35697624 0.075679734 -0.244866 -0.33086336
000020 4a ca 79 3e c0 12 27 bc 42 35 b7 be 9c 1c 3e 3e
       0.24393573 -0.010197341 -0.3578282 0.18565601
000030 41 19 f8 3d fc 48 c0 3e 6c e5 34 bd 71 43 41 3e
       0.12114192 0.37555683 -0.044164106 0.18873383
000040 8a f2 42 3d 00 c2 62 3c f7 9c 3b be 46 51 98 bd
       0.047594585 0.0138401985 -0.18321596 -0.07437377
000050 ea 19 57 3e 00 8e b2 be a4 79 dc 3e e0 82 91 be
       0.21005979 -0.34873962 0.43061554 -0.28420162
000060 cc b8 83 3d 1c 21 ef bd 76 14 de bd 37 cf 0d 3d
       0.064317316 -0.11676237 -0.10843746 0.034621444
000070 f7 7b f2 bd 86 44 35 bd 0d b5 ae bc d9 33 19 3d
       -0.11840051 -0.044254802 -0.021326566 0.03740296
000080 94 ac 0e 3f 80 04 bd bd 1e 4f 7a bb 29 be 0e 3d
       0.55732083 -0.09229374 -0.003819413 0.03484932
000090 1e 5d c4 bd 93 19 36 3b 35 aa 77 3d a9 ad 40 bd
       -0.09588073 0.002778624 0.060465056 -0.047040615
0000a0 23 42 d3 3b 24 5a b8 bd 49 fc 0e be e5 84 1f 3d
       0.006447093 -0.09001568 -0.13963427 0.038945097
0000b0 a6 52 22 3c 94 65 83 3c be 35 bf 3c 69 98 5e bd
       0.0099074 0.016039647 0.023341056 -0.05434457
0000c0 b5 a6 8c bd 28 9a 75 bd 73 44 23 3c f3 b4 bf bd
       -0.06867734 -0.059961468 0.00996505 -0.09360685
0000d0 72 04 07 3e 25 fd 24 be 89 4a 1f 3d 4d 2f cf 3b
       0.1318529 -0.16112192 0.03888944 0.0063227774
0000e0 b3 c0 fd 3e a5 10 e6 bd 26 bb f5 bd b6 7b be bd
       0.4956108 -0.112336434 -0.11998586 -0.0930094
0000f0 02 55 ba 3d a0 c7 0b bd 4b 86 17 bf 4b d3 91 be
       0.09098245 -0.034125924 -0.5918929 -0.28481516
000100 94 b3 64 bd ee bd 6a 3e cd aa 68 3d 25 16 10 be
       -0.05583532 0.22924015 0.056803513 -0.14070947
000110 e3 98 b5 3e bf 6b 2b 3e 43 fe 05 3c 55 05 0c be
       0.35468206 0.1674032 0.0081782965 -0.13673909
000120 86 09 1e 3e d8 83 3e 3e fc d2 3c 3e 91 0e 37 3f
       0.1543332 0.18604982 0.18439859 0.715066
000130 86 d7 98 be 79 17 c3 3e af 78 08 3d 98 c6 be bd
       -0.2985193 0.38103846 0.033318218 -0.093152225
000140 d6 f0 08 3c fb de e8 3d d8 81 98 be 3c cd 4e be
       0.008358201 0.11370655 -0.29786563 -0.20195478
000150 d4 2a d5 3d 11 ac e5 3e 39 c5 b9 3e df 17 22 bd
       0.104085594 0.4485784 0.3628328 -0.039573546
000160 db 98 93 3d 1f 0f fe bc 9e 64 9a bd 9e d4 e2 bd
       0.07206889 -0.03101307 -0.075387225 -0.1107571
000170 ed 5f dd bd 21 56 72 3d eb 77 4c bd 89 f2 26 3d
       -0.10809312 0.05916417 -0.04991905 0.040758643
000180 46 6c 1e bd 2e ac 54 3d 09 1a 2a bc eb 1e d3 3d
       -0.038677476 0.051922016 -0.010382184 0.103086315
000190 b9 b7 20 bd 40 70 cf 3c aa c1 8a bd b5 a7 05 be
       -0.03923771 0.02532208 -0.0677522 -0.13052256
0001a0 05 cf 3e 3b 4f 20 cd bd 43 27 54 3d df 3b ba bd
       0.0029115092 -0.10015928 0.051795255 -0.09093451
0001b0 37 dd 6a bc c7 c4 ea 3e 45 7e 5a 3e 3b d7 e4 3d
       -0.014334968 0.45853254 0.2133723 0.111738645
0001c0 64 75 2d 3d 38 8d 1c be b5 0a 39 bd 78 cf 69 bd
       0.04234828 -0.15288246 -0.045176227 -0.057082623
0001d0 36 94 43 bf d5 23 33 be 3b f3 57 be 36 4e 24 3e
       -0.76398027 -0.17494138 -0.21088879 0.1604546
0001e0 4d d6 da be 82 0b db 3d 08 12 9f 3e 4b 28 2f be
       -0.42741624 0.10695554 0.31068444 -0.17105214
0001f0 d6 a5 43 3b d4 95 70 3e c0 df ad 3e 5d 34 0b 3e
       0.0029853485 0.23494655 0.3395977 0.13594194
000200 19 7f d8 bd 5c e7 54 3e 79 1c cc bc dd 00 c5 bd
       -0.10571117 0.20791382 -0.02491592 -0.09619305
000210 1c ae 0a bf a8 f2 10 3f fb ac 7f 3e 62 e6 56 3e
       -0.5417192 0.56620264 0.2496833 0.20986322
000220 93 19 d8 3e ca 91 d5 3e 93 68 0c 3e 05 1c 13 3e
       0.42207012 0.4171279 0.13711767 0.14366157
000230 d4 4e 2a be 1f d9 86 bc 63 4c 9e bb cc d2 4a bd
       -0.16631633 -0.016460953 -0.0048308834 -0.049517438
000240 cf ee d4 bc 49 4d a3 3c 48 44 47 3b 49 ee 89 3d
       -0.025992779 0.019934313 0.003040569 0.067349024
000250 e9 0a 60 3d ff 9a 99 bc f8 3c f7 3c f9 4f b6 38
       0.054697905 -0.018750666 0.03018044 8.693332e-05
000260 38 0e 3d 39 e6 fd a2 3c 8e ed 1f bd 7d ab be 3d
       0.00018029741 0.019896459 -0.03904491 0.093100525
000270 ab 6b 42 bd 35 76 ea bd eb 1f 95 3d d9 ed ba bd
       -0.04746596 -0.114483275 0.072814785 -0.09127397
000280 60 b3 0f bd 89 4a 00 bd a4 cb 1a be ff 21 06 3f
       -0.035083175 -0.031321082 -0.15116745 0.52395624
000290 ec 37 5a 3f ae e8 4f 3e 5c 99 43 3d c0 9d 1a 3e
       0.8524158 0.20303604 0.047753677 0.1509924
0002a0 1d 8d 1e be 61 36 12 be b3 ef 4d bf 30 20 3a 3e
       -0.15483518 -0.14278556 -0.80443877 0.18176341
0002b0 88 39 d8 be 2b 6d 32 bd 6a 53 3d bf e1 37 f2 3d
       -0.42231393 -0.043561142 -0.73955405 0.11827064
0002c0 da 74 45 be 98 39 89 be 09 8f 5b bd 2b 94 26 be
       -0.19282857 -0.26801753 -0.053603206 -0.16267459
0002d0 21 1f 64 3e e3 14 b5 bc 56 09 8f bb e3 fc eb 3d
       0.222775 -0.022104686 -0.0043651266 0.11522844
0002e0 7d b2 7d 3e 1e 40 c1 be e9 cf 63 be 72 c5 30 3e
       0.24775119 -0.3774423 -0.2224728 0.1726282
0002f0 b8 d5 2c be 9a 9d c7 3e ab fa d6 bb 09 b9 0a bd
       -0.16878402 0.38987428 -0.0065606437 -0.03386787
000300 e6 ee 89 3d 57 0c c5 3d 32 53 d3 bc 64 8f e5 bb
       0.067350194 0.09621494 -0.025796507 -0.007005619
000310 a5 63 20 be cc 68 cb 3c 5c 38 ce bd 9f 27 38 3d
       -0.15663011 0.024830244 -0.100693434 0.04495966
000320 7f cd 0a bd e5 1d 8f bd 0c 24 4c 3c fa a0 8a 3c
       -0.033887383 -0.06988124 0.012459766 0.016922463
000330 71 2a 69 bc dc 2b 54 3d b7 fe e9 bd 3a a8 96 bd
       -0.01423131 0.05179964 -0.11425536 -0.073563054
000340 e5 1b c8 3d fd 64 82 bc f0 d4 ff 3c c6 0a fc bd
       0.097709455 -0.015917296 0.031229466 -0.12306742
000350 05 3e 9e 3d ba ab e5 3d 0e 3f f1 3c 98 7f ce 3d
       0.07726673 0.11214395 0.029449012 0.1008293
000360 1a e8 9d 3d 7d ba a8 3e c7 4e db 3d cc a9 83 3d
       0.077102855 0.3295478 0.10708385 0.064288706
000370 3b e0 20 bf fd ff 05 be 72 ca b0 3e 1e 34 5b be
       -0.6284215 -0.13085933 0.34529454 -0.214066
000380 ea 74 89 3d a1 02 82 3e 77 fe b0 bd 89 2a 88 3e
       0.06711753 0.2539263 -0.08642285 0.26594952
000390 1b b0 8e 3e 19 64 79 3d c0 01 02 3e f8 e4 a7 bd
       0.27868733 0.060886476 0.1269598 -0.08197969
0003a0 fb 2e cc bb 35 c8 42 3e d0 4a d9 3d 72 15 48 be
       -0.0062311864 0.19021685 0.106099725 -0.1953943
0003b0 5b d9 cb bd da 0e 25 3e a8 87 c5 bd 59 d8 f3 3d
       -0.09953567 0.16118947 -0.09645015 0.119064994
0003c0 f4 38 e9 be 5b c9 e7 be 88 f2 eb 3d b1 dc 0f bc
       -0.45551264 -0.4527081 0.115208685 -0.008780644
0003d0 f1 d9 b0 bc f5 85 8c be ca 7b 3f be 4e 8a 1f 3e
       -0.021588298 -0.2744595 -0.18699566 0.15580103
0003e0 8b ad b1 bd 90 26 14 3d b1 c3 4d bc a1 7d 11 bc
       -0.08675679 0.03616959 -0.0125588635 -0.00888005
0003f0 68 9b 85 3c 67 85 24 3c 03 a7 b8 3d 78 f2 8e 3d
       0.016309455 0.010041571 0.0901623 0.06979841

bias f4 [512]
000000 f6 70 27 bc 3f 2b ec bc 27 17 ed 3d 48 5e 9b 3d
       -0.010219803 -0.028829215 0.115766816 0.07586342
000010 1a 3d 2e 3e 36 98 7f 3c 69 1d 80 3d 95 92 f8 bd
       0.17015496 0.015600255 0.062556095 -0.12137333
000020 19 1b ad bd ef 05 cf 3d 81 c2 12 be 5d 8e 09 be
       -0.08452434 0.101085536 -0.1433201 -0.13433214
000030 f6 32 ed 3d 5e fe af bd 0b a3 42 be c9 62 4d 3d
       0.11581986 -0.085934386 -0.19007508 0.050143037
000040 f3 a6 22 3d 12 bf 2d 3e f0 6e 09 3e 14 13 2c be
       0.039709996 0.16967419 0.13421226 -0.16804153
000050 29 50 50 3c ae a5 d2 bd 00 df 0c be 72 15 b9 3d
       0.012714424 -0.10285507 -0.13756943 0.090372935
000060 fd b3 fa bd a8 d2 a0 3d 36 e9 d5 3d f3 a6 d2 3d
       -0.12241361 0.078526795 0.10444872 0.10285749
000070 47 6c 1a bd c9 f1 6b 3c 6e 8e 4b 3c 77 c3 0f bd
       -0.037700918 0.014400908 0.012424095 -0.03509852
000080 da 53 7f bc 4b fe 11 be cf 11 82 3d 0e 1f 5c bc
       -0.015583957 -0.14257161 0.06351053 -0.013435138
000090 38 64 f1 bd d0 79 85 bd e5 18 49 3c d5 7a 19 be
       -0.11786693 -0.065173745 0.012274002 -0.14988263
0000a0 ca 3e 98 3c 11 64 5b 3c 17 d0 6c bc ba 10 eb 3b
       0.018584628 0.013390557 -0.014453909 0.007173625
0000b0 08 ef 0d bd 84 d6 dc bd e2 a0 22 be cc 8f 9b bd
       -0.034651786 -0.10783103 -0.15881684 -0.075957865
0000c0 37 0c 65 bd fa cc 33 bd aa bd 8a bd 99 01 b0 3c
       -0.055919852 -0.043896653 -0.06774457 0.021485137
0000d0 07 ea 24 3c d2 00 20 bd 71 3a cb 3c dc 06 55 3d
       0.010065562 -0.039063282 0.02480814 0.052008495
0000e0 6c 72 79 3c cd d9 e9 bd 7e f7 af bb e2 36 ff bd
       0.015225034 -0.11418495 -0.0053700795 -0.1246164
0000f0 67 fa ae bd f5 b3 e7 3d 16 ca 0b be 86 d0 cb 3d
       -0.08543854 0.11313621 -0.13651308 0.09951882
000100 7a e6 06 be 92 01 c1 3d ea fe 48 be fe bc d0 bd
       -0.13173857 0.09424128 -0.19628492 -0.101922974
000110 9d e7 23 3e 70 5e fb 3d f4 ad d5 bc 75 40 14 be
       0.16006322 0.12273872 -0.026083924 -0.14477713
000120 79 82 0d be 6f 67 0e 3e 8c 18 bb bd 92 b5 25 be
       -0.13819303 0.13906644 -0.09135541 -0.16182545
000130 87 7c 39 be a4 46 df 3d 91 f2 b2 3c 2e 0d 50 3d
       -0.1811391 0.109021455 0.02184418 0.05079382
000140 99 82 13 3d c4 e8 96 3c 05 14 d2 bc 50 2b 26 bd
       0.03601322 0.018421538 -0.025644312 -0.04056865
000150 e4 1f fc 3c ec 3b 1f bd 0c 5e 40 bd bc 54 92 3d
       0.030776925 -0.038875505 -0.04696469 0.07145068
000160 d7 92 6c 3c 8c 1d 21 be 51 49 8a bd 5c 36 db 3d
       0.014439306 -0.15733927 -0.06752265 0.107037276
000170 d6 6f 15 3d 95 5f e1 bd 29 ef 43 3d 9f 19 95 3d
       0.03648361 -0.11004559 0.047835503 0.072802775
000180 fa 72 f8 3d 55 53 b0 bd 4b e7 40 3d 4c 88 c4 bd
       0.12131305 -0.08609644 0.04709558 -0.09596309
000190 b0 27 f9 3d c8 22 2d bd bc f4 cb bd 8d 1f 1e bb
       0.12165773 -0.042269498 -0.09958789 -0.0024127692
0001a0 3e be a1 3d 21 51 08 bd 91 67 31 be cf 33 a6 3d
       0.07897614 -0.033280496 -0.17324664 0.081153505
0001b0 31 63 13 bc 9b 3f b8 3d 69 9a 95 bd 76 06 bd bd
       -0.008995817 0.08996507 -0.07304842 -0.09229748
0001c0 8c 6a a1 3c 87 78 ae bd 17 67 d0 bd 3a b9 69 3d
       0.019704126 -0.085190825 -0.10175913 0.05706141
0001d0 32 a6 73 bc 5a bf a9 3d 23 3c 08 bd 5b 1b d2 bc
       -0.014871167 0.082884505 -0.033260476 -0.02564781
0001e0 2b de 14 bd d1 6d fa 3d c2 15 1c be 72 aa 0f bd
       -0.03634469 0.12227977 -0.15242675 -0.03507466
0001f0 bb b3 68 bd 1b 49 a9 3c 1c 33 61 be 7a 53 44 be
       -0.05681203 0.020664742 -0.21992153 -0.19172469
000200 a2 e0 38 bd f3 59 ae bd a6 e4 b5 bd 8a ed 9a bc
       -0.0451361 -0.0851325 -0.08881502 -0.018912096
000210 d3 99 7d bd e5 f8 66 bc c0 1c e4 3d 50 96 ad bd
       -0.061914276 -0.014097427 0.11138296 -0.084759355
000220 b2 7e ec bd cd 6f c2 3c 20 23 a2 bc b5 0e aa bd
       -0.11547603 0.023734951 -0.01979214 -0.083035864
000230 5e d0 04 3d 7d 0b 0f 3d 7c 39 31 3d a2 4a 7b bd
       0.032425277 0.034923065 0.043267712 -0.061350472
000240 d0 cd c5 bd 04 22 19 3d 95 1f 16 be 04 20 4e 3d
       -0.09658396 0.037385955 -0.14660485 0.0503235
000250 25 ea d9 3d f2 32 1b 3d bb 67 d1 3d 29 ed 87 3d
       0.10640363 0.037890382 0.10224863 0.066370316
000260 99 5c 06 be ce d3 44 bc a7 a9 c2 bd d2 09 89 3d
       -0.1312126 -0.012013389 -0.09505015 0.06691326
000270 52 fc b8 bd 45 4e a7 3d 2b fc 19 3b 22 8f 15 be
       -0.09032501 0.081692256 0.002349625 -0.14605382
000280 61 64 14 3d 03 00 5d bd b5 1d 71 3c 40 c9 b4 3d
       0.03622854 -0.05395509 0.014716555 0.08827448
000290 14 cc cb bc ce c1 1f bd 1d 56 d2 bc 2a ab a7 3d
       -0.024877585 -0.039003186 -0.025675828 0.08186944
0002a0 fa 53 39 bd 62 11 97 3d ca b0 97 ba 8b 04 f3 bd
       -0.045246102 0.073763624 -0.0011573073 -0.11866101
0002b0 cf 82 05 bc f2 19 34 bd 7d 14 da 3d 90 de 2d be
       -0.008148863 -0.043970056 0.10648439 -0.16979432
0002c0 74 25 fe bd f2 25 ca 3d 55 e3 37 bd a8 a9 24 bd
       -0.12409487 0.09870519 -0.044894535 -0.04020086
0002d0 ac 17 34 be 66 16 2d be f6 2f 4c 3d 07 13 fb bd
       -0.17587155 -0.16903076 0.049850427 -0.122594886
0002e0 a6 9c c5 bd a6 e2 97 bd 77 77 70 bc 1b 0a 3d 3b
       -0.09649019 -0.07416277 -0.01467692 0.0028845135
0002f0 85 87 26 be 53 d0 4d bd 52 76 0a be 16 2e 5c 3d
       -0.16262634 -0.0502475 -0.13521698 0.05375489
000300 c1 4c 9d 3d 57 84 25 be b6 2a 63 3d 10 7a fd bd
       0.07680655 -0.16163765 0.055460654 -0.12376797
000310 21 53 d7 bc 74 aa c7 bd 5f 6b 15 bd d0 d7 4e 3d
       -0.026284756 -0.09749308 -0.03647935 0.050498784
000320 8f 49 fb bd 8e 9e 55 3d b0 7b 80 be 75 f4 cb 3d
       -0.122698896 0.052153163 -0.25094366 0.09958736
000330 bd 2b f4 bd 05 1d 8e 3d 0b 49 1e bd 9d 16 f8 bd
       -0.11922405 0.06939129 -0.038643878 -0.12113688
000340 5c 87 00 3e 1f f3 02 3d 60 97 cf 3c 4e cc 2a 3d
       0.12551636 0.03197014 0.025340736 0.041698746
000350 61 9e 13 be 38 b7 82 3d db 57 7b bc 1c 97 48 be
       -0.14415886 0.063826025 -0.015340771 -0.19588894
000360 b8 9b fe 3c c5 14 22 3d a9 f0 a1 bd 71 3b fc bd
       0.031080112 0.03957059 -0.079072304 -0.12316025
000370 73 12 d4 3d 01 ad 15 bd ee 2a 71 bd 1e 07 9a 3d
       0.103550814 -0.036541943 -0.05887883 0.07520889
000380 d6 bb 8a bd 0b a7 0a be d0 58 fb 3d 79 89 6e 3d
       -0.06774108 -0.13540284 0.12272799 0.058236573
000390 65 19 e2 3d 35 6d ba 3c dd 06 cc bc 6e 9b f3 3d
       0.1104 0.022757152 -0.024905616 0.1189488
0003a0 45 ea 4c 3d cc ee a2 3c cb f9 c4 bd b6 e8 05 be
       0.050028104 0.019889258 -0.09617957 -0.13077053
0003b0 53 b8 99 bd 8d 8f d8 bd c0 40 9e 3d f9 18 66 3c
       -0.0750586 -0.10574255 0.07727194 0.01404404
0003c0 44 d1 b8 bd 6b 7c fd bd ff 24 65 bd aa c5 18 be
       -0.09024289 -0.123772465 -0.055943485 -0.14919153
0003d0 30 dc 4a 3d aa 00 2a bd ce 6e 82 3d f4 4c 9b 3d
       0.049526393 -0.04150454 0.063687906 0.07583037
0003e0 27 2b 8d bc 20 ac e3 bd f3 3b 9f bd cd d2 f2 3d
       -0.01723249 -0.111168146 -0.07775106 0.11856613
0003f0 e6 84 cc 3d 92 bf cf 3d 37 6b bb bd 74 06 8e bc
       0.09986286 0.10143961 -0.09151309 -0.017337061

weight f4 [256, 512]
000000 93 84 24 3d b7 e9 01 bd 66 0a c5 bc 10 73 1a be
       0.040165495 -0.03171703 -0.02405281 -0.15082955
000010 94 89 e5 3c 97 3d 98 bd 6b e7 a9 bc 62 be 60 3d
       0.028019704 -0.07433622 -0.020740231 0.054869063
000020 74 a2 82 bd 69 3f eb bb fa 08 1c bd 0a f7 0b 3d
       -0.06378642 -0.00717919 -0.0380945 0.03417114
000030 0c a0 b7 3d 9f 84 b8 3d 83 d9 f7 3c ec 94 5b 3b
       0.089660734 0.090096705 0.030255085 0.0033505512
000040 b1 a7 ca bd a3 60 be 3d 73 93 22 be e3 19 55 bc
       -0.09895266 0.09295776 -0.1587656 -0.01300666
000050 52 b8 bc bd b2 82 31 bd ce da 4b be 09 53 31 ba
       -0.09214844 -0.04333753 -0.19907686 -0.00067643874
000060 6b cb 01 3d ba c0 fd 3d 12 0b 9b bd d2 2b 5c bd
       0.031688135 0.12390275 -0.07570471 -0.053752728
000070 ca 4a 0f 3c e5 a6 28 be fc 78 45 bd 5f 3b 22 3d
       0.008745858 -0.16469915 -0.048211083 0.039607402
000080 69 aa 3e bc 93 ee 47 3c f8 39 83 3c dc 0f 46 3d
       -0.011637309 0.012202877 0.016018853 0.04835497
000090 00 2e 9b 3d 66 ec 9f bd 44 65 31 bd 69 4c 1a 3d
       0.07577133 -0.07808761 -0.043309465 0.037670527
0000a0 ee 80 dc 3d 5f ad 48 bd cf 6f 85 3e 24 08 51 bc
       0.10766779 -0.048993465 0.26061866 -0.0127582885
0000b0 da bd 0d 3d f8 69 18 be 6f 20 fe bc 33 71 54 3d
       0.034604885 -0.14884174 -0.031021325 0.051865768
0000c0 7a eb c8 bc ea 16 d0 bd e4 86 d2 bc e0 e9 ea bc
       -0.024526346 -0.101606205 -0.025699086 -0.028675973
0000d0 ae 06 7b bd 6f 63 f0 bd 03 f1 00 be fb 64 24 be
       -0.061285667 -0.117377155 -0.12591939 -0.16054146
0000e0 b2 65 d5 bd c1 48 fe 3c 51 59 fb 3c 27 12 54 bc
       -0.104197875 0.031040551 0.030682238 -0.012943781
0000f0 0e a5 8b bd 79 4d e5 bc df 83 2c be 4a bf 88 be
       -0.06818591 -0.027991043 -0.1684718 -0.26708442
000100 86 2f 0e 3e 36 3e 1b 3e 59 3c ec bd 99 e0 10 bd
       0.13885316 0.1516045 -0.11534948 -0.035370443
000110 e6 6c 4f bb df 40 68 3c ef 0a 9c bd b9 89 65 3c
       -0.0031650602 0.014175623 -0.07619273 0.014009886
000120 1c 0f 1a 3c e4 f2 0f 3e 4f 42 81 3a b9 b2 30 bd
       0.009403016 0.14057499 0.000986168 -0.043139193
000130 d7 a5 a7 bb e0 7f 7a bd 8c cc 05 be e7 24 07 3d
       -0.005116205 -0.061157107 -0.1306631 0.032994177
000140 84 c6 e1 bc 7a 7d f1 bc 8c c9 12 3d 8e 80 b4 bd
       -0.02756048 -0.029478777 0.03583674 -0.08813582
000150 9c f9 7f bc 89 c5 27 be 72 f4 6a 3d f9 70 9b bd
       -0.015623476 -0.16383947 0.057362027 -0.07589907
000160 e5 6b 34 3d 28 e7 3b bd 23 71 d5 3d 05 ca fe 3c
       0.04404821 -0.045874745 0.1042197 0.03110219
000170 0d 24 15 bd 0c 5b 9c bd bd b8 ba bd 2f 51 de bc
       -0.036411334 -0.07634553 -0.09117267 -0.02713832
000180 02 61 04 be 41 24 eb bd 0e f0 ef bd 8f 48 12 bd
       -0.1292763 -0.11481524 -0.11715709 -0.03571373
000190 39 73 90 bd e2 b0 1d 3d ed 6e a5 bd f7 39 ac bc
       -0.07053227 0.038498767 -0.08077798 -0.021023734
0001a0 7d 05 93 3c 62 25 b8 bb 15 36 eb bd 7a 6a 00 bd
       0.017946953 -0.0056196908 -0.11484925 -0.031351544
0001b0 ec 87 1b 3d b2 16 5e 3d d1 39 38 bd 40 8e b3 bd
       0.037971422 0.054220863 -0.044977013 -0.087673664
0001c0 9a 48 c4 3c 2f 76 7c 3c 7a 9d a3 bd e9 ac ae 3c
       0.0239604 0.015409037 -0.07989021 0.021322684
0001d0 72 c1 0b be 8d ec a9 3a 62 93 f4 bb c7 d9 db bb
       -0.13648012 0.0012964174 -0.0074638585 -0.0067093107
0001e0 9e be 3f bd 29 44 5c bd ea e0 bd 3c 82 f4 3b 3d
       -0.046812646 -0.05377594 0.023178536 0.045887478
0001f0 db 99 14 bd 63 9d 74 3b 7f 7d 43 3e 2c 23 d5 bd
       -0.03627954 0.0037325255 0.19090842 -0.10407099
000200 0d 05 ee 3c a4 d1 3d be 21 d8 05 bd c6 7e 38 bc
       0.029055143 -0.18537003 -0.03267682 -0.011260694
000210 73 49 81 be b4 50 08 bd 0f d6 9b bc 40 55 8b 3d
       -0.2525135 -0.03328009 -0.01902297 0.068033695
000220 ec 56 43 3c c6 f5 e9 3d f9 5f 08 be a8 a4 8e bb
       0.011922579 0.11423831 -0.1331786 -0.0043531246
000230 c7 af a0 ba 5d f0 7a 3c 3b 1f ec 3c e0 78 10 3d
       -0.0012259417 0.015316096 0.028823486 0.035271525
000240 8d 9e 48 3c 87 26 ab 3c 6f e7 7c bd 93 fe 47 be
       0.012244833 0.020892395 -0.06174415 -0.19530706
000250 40 d9 92 bb 16 4f 4b bd d4 93 8f 3c f5 25 82 3d
       -0.0044814646 -0.04963597 0.017526545 0.06354896
000260 e7 65 4f 3e 9e 19 73 bc ec 55 35 3d 56 1a a2 3c
       0.20253716 -0.014837651 0.044271395 0.019787949
000270 13 ce 03 bd 78 3d c5 3d 6e f5 de bb 1d 81 c9 3a
       -0.03217895 0.09630865 -0.00680416 0.0015373562
000280 6b cd 4d 3d 8d 5e 90 3b 1d 9f 42 bd fb 96 b2 bd
       0.05024473 0.0044058026 -0.047515023 -0.087202035
000290 69 93 16 3e d1 34 71 bd 91 4e ca 3d 20 33 a5 bd
       0.1470467 -0.05888826 0.098782666 -0.08066392
0002a0 cb 52 8e bd cd 5b e2 3d 4e d7 20 3e 43 5a 69 be
       -0.06949385 0.11052666 0.15707132 -0.22788338
0002b0 b0 46 aa 3d 5c 0e 32 3e 61 47 ae bc c2 f4 f0 3c
       0.08314264 0.1738829 -0.02127427 0.029413585
0002c0 60 e9 13 bc 95 80 27 bd a3 f9 8e bd 92 76 36 bc
       -0.009027809 -0.04089411 -0.06981208 -0.011136668
0002d0 29 0d 72 bc cc 1f 03 bd 08 30 89 bc 9d 27 20 3d
       -0.014773645 -0.032012746 -0.016746536 0.03910028
0002e0 ef 43 c0 bd 88 47 b5 bd e0 7f 68 3c 08 7e 2f 3d
       -0.09387957 -0.08851534 0.014190644 0.042844802
0002f0 39 80 3e bd 3d c5 d4 3d a7 ed 27 3c 93 03 0a 3d
       -0.046509 0.10389183 0.010249532 0.033694815
000300 b1 b5 fa bd 51 36 8e bd 67 28 e9 bd ae a7 a2 3d
       -0.12241686 -0.06943954 -0.11384659 0.079421386
000310 19 0b ac 3d f3 dc 60 bd 4f 33 26 bd e7 dd 9b 3d
       0.08400554 -0.054898214 -0.040576275 0.07610684
000320 46 d6 2a bc d5 e6 83 bd 1c 49 04 bd 76 0e 86 bc
       -0.010427063 -0.06440512 -0.032296285 -0.016364317
000330 97 07 58 bd 58 3a 0e 3d 84 d5 12 bb d2 ec fc 3c
       -0.052741613 0.03472361 -0.0022405097 0.030874643
000340 96 37 94 bd a7 e9 94 3d 3c 43 85 3b f7 72 0e bd
       -0.07237165 0.07271128 0.004066853 -0.034777608
000350 1a e4 f1 bd ad d4 a5 bd 38 aa 95 bd 17 56 fc bd
       -0.11811085 -0.08097205 -0.07307857 -0.12321108
000360 b6 bc 0c 3a f0 8d d8 3d 4c 9e a2 bd d1 7f dc bb
       0.00053686963 0.105739474 -0.07940349 -0.006729104
000370 0a f6 6a bd b3 79 09 3d c1 2a 95 bb 70 f1 8f bd
       -0.057363547 0.033563327 -0.004552216 -0.070284724
000380 92 a3 43 bd c7 57 79 bc 47 94 09 3d a4 dd 17 bd
       -0.047763415 -0.015218682 0.033588674 -0.037076607
000390 65 54 0f 3d ab d1 09 3a 7d c3 5d 3d f3 86 e0 bc
       0.034992594 0.0005257378 0.05414151 -0.027408099
0003a0 4f 7a e9 3c f7 c4 89 3c 85 f3 0e be f3 f6 f1 3b
       0.028500704 0.016817553 -0.13960083 0.007384175
0003b0 e3 98 e7 bd 5c 05 38 bc dc e1 8f 3d 73 a5 c1 3d
       -0.11308458 -0.0112317465 0.07025501 0.09455385
0003c0 6e e5 93 bd 2d 80 51 bd a3 d3 ee 3b 70 30 db bc
       -0.072214946 -0.05114763 0.0072884127 -0.026756495
0003d0 3d 57 de 3c 68 7d bf 3d d5 f0 76 3d 5d 88 4f 3d
       0.027141208 0.09350091 0.06028827 0.050667156
0003e0 69 cc a2 3c 3e f0 20 bb b2 6f 3e bd 9b f9 47 3e
       0.019872861 -0.0024557258 -0.04649324 0.1952881
0003f0 24 92 0d bd a2 ed a6 bc 8e 58 a9 bb 3b 21 b0 bd
       -0.0345632 -0.020376984 -0.0051680272 -0.08600088

bias f4 [256]
000000 5e 1b b5 3c 4e 1e 8f bd 6d ef 97 bd c8 98 a9 bd
       0.022107776 -0.06988202 -0.07418714 -0.08281094
000010 b2 4b ab bd 9e db a8 bd b1 39 b2 bc f9 6e 11 be
       -0.08364047 -0.08245014 -0.021756025 -0.14202489
000020 76 d4 20 3a 8f d2 28 bd b2 bb d5 ba 40 c6 22 be
       0.0006135175 -0.04121643 -0.0016306548 -0.15895939
000030 7b da a5 bd 5e 7e 8a bb 24 a0 89 3c 16 45 03 be
       -0.080983125 -0.00422649 0.016799994 -0.12819323
000040 f1 ae 14 bd 53 14 eb 3b 24 29 26 be 3c a5 bc bd
       -0.03629965 0.0071740537 -0.16226631 -0.092112035
000050 ab 83 82 bd 10 04 62 3c 7f a6 27 be 5d b8 5b bc
       -0.0637277 0.013794914 -0.16372107 -0.013410655
000060 d4 24 0f be b8 d2 6a bd 57 a7 a4 bd b2 c8 dd bc
       -0.13978893 -0.057329863 -0.0803973 -0.027073238
000070 42 12 6f bd 38 e3 e8 bc fb c1 f6 bd 77 00 47 bd
       -0.05836702 -0.028428659 -0.120487176 -0.048584428
000080 6a 4c 3e be 4e 5f 88 3b a6 f4 15 be 18 31 8a bd
       -0.18583837 0.004161752 -0.14644107 -0.06747645
000090 0d e8 47 be 68 4d 15 3d 55 a4 c4 bd 0f d5 57 bd
       -0.19522114 0.036450773 -0.09601656 -0.052693423
0000a0 e8 39 87 bc cd 05 8b bd 70 2e 34 be c1 23 8e bb
       -0.016507104 -0.06788216 -0.1759584 -0.0043377583
0000b0 47 51 44 bd 68 0f 91 bc 36 77 87 bc 82 77 78 3c
       -0.047929075 -0.017707542 -0.016536336 0.015165212
0000c0 1e 12 17 bd 3c 78 83 bd 16 f0 dc bb ae e1 ed bc
       -0.036882512 -0.06419417 -0.0067424877 -0.029038277
0000d0 63 b4 8c be 78 c0 d7 bd 1a aa 5f bd b4 86 8d bd
       -0.27481374 -0.105347574 -0.05460558 -0.06910458
0000e0 f3 a4 3b be 1b 2b 09 be 09 36 0d be 8f 41 19 3b
       -0.18324642 -0.1339535 -0.13790144 0.0023385023
0000f0 75 79 e8 bc c3 0c 96 bd c8 a4 51 bd 9b 7e e8 bd
       -0.028378228 -0.07326653 -0.05118254 -0.11352273
000100 f2 5b 26 be 92 9a f9 3a b7 94 61 bd d7 eb 56 bd
       -0.16246012 0.0019043258 -0.055073466 -0.05247101
000110 17 70 13 bd 64 65 a1 bc 74 05 45 bd 2c aa 7f bd
       -0.03599557 -0.019701667 -0.048100904 -0.062418148
000120 8b d9 41 bd 3e 1b 39 bd 21 f6 d4 bd 93 da ac bd
       -0.047326606 -0.045191996 -0.10398508 -0.08440127
000130 da 30 c4 bd f2 b2 3d 3d 51 10 12 be ba 2b ec bd
       -0.0957963 0.046313234 -0.14264037 -0.11531778
000140 da 41 f9 bd e3 51 ec 3b dc aa dc bc d2 2a 2d bd
       -0.12170763 0.00721191 -0.02693694 -0.042277165
000150 f6 db f5 bd 0b 9f 0b bc 3c f1 8c bd 9c 3c 06 bd
       -0.12004845 -0.0085218055 -0.06881949 -0.032772645
000160 ec d7 8b bd 38 d3 bd bd 63 8c 1f be b1 38 fe bc
       -0.06828293 -0.092688024 -0.15580897 -0.031032892
000170 fa d1 d6 3c 5b 5b bd bd 05 5b 84 3c ec 2a e9 bd
       0.026223172 -0.0924594 0.016156683 -0.1138514
000180 88 c3 96 bd d4 40 65 bd 93 61 4b bd 23 ab 7d bd
       -0.073615134 -0.055970028 -0.0496536 -0.061930787
000190 97 67 58 bd 81 88 d0 bd 2e 39 ca bd 1a 42 56 bd
       -0.052833166 -0.10182286 -0.098741874 -0.052309133
0001a0 a0 26 84 bc 18 01 d4 bb 52 fe b7 3c 6c 23 37 bd
       -0.0161317 -0.006469857 0.022460137 -0.044711515
0001b0 55 5c dd bd 5b 88 46 bd a0 71 9a bd 43 1a 07 3d
       -0.108086266 -0.048469882 -0.075412035 0.03298403
0001c0 58 70 53 bd fb 42 dd bd c7 b5 97 3c 46 f0 62 bd
       -0.05162081 -0.10803791 0.018519295 -0.055404924
0001d0 51 94 50 3c 37 ed dc bd 40 d1 46 bd 9a e7 aa bc
       0.012730674 -0.10787433 -0.0485394 -0.02086239
0001e0 c3 cd a1 bd 30 eb 12 be aa e8 6a be 23 e6 8d 3c
       -0.07900574 -0.1434753 -0.22940317 0.017321652
0001f0 86 7d 93 bb ec af 37 bd ac 45 16 3d a7 ff 2e bd
       -0.0045010475 -0.044845507 0.036687538 -0.042724278
000200 cc 0a 31 be 18 aa a2 bd 5f 40 bc bc 78 21 c2 bd
       -0.17289275 -0.07942599 -0.022979913 -0.0947904
000210 b3 18 83 bd 23 a0 07 be 6c 4e 99 bc 1a cc 92 bd
       -0.064011954 -0.13244681 -0.018714152 -0.071678355
000220 2c 98 7a bd cf 9e b0 bc 29 d3 c7 bb d7 f3 b5 bd
       -0.06118028 -0.0215601 -0.0060981703 -0.088843994
000230 32 69 ee bd a6 fc bb bc 8a 2b 32 bd ae ef 22 be
       -0.11641158 -0.02294762 -0.043498553 -0.15911743
000240 ac 7a e3 bd d7 f3 19 be 50 de 05 be 45 45 45 bc
       -0.11107382 -0.15034424 -0.13073087 -0.012040441
000250 5d d7 cc bd 72 83 d0 bd 35 ad 93 bc 91 63 8c bd
       -0.10002015 -0.10181321 -0.018026927 -0.06854928
000260 5f 79 b2 bd c9 2e af bc 47 84 42 3d 0a a9 b2 bc
       -0.08714556 -0.021384614 0.04748943 -0.02180912
000270 06 f8 2b bc 67 39 27 be bc 8b 15 be 5d 54 f9 bc
       -0.010496145 -0.16330491 -0.14604086 -0.030435735
000280 04 c1 1d bd b9 79 3a bd a4 b0 f5 bd 9f f4 fd bc
       -0.038514152 -0.04552624 -0.11996582 -0.031000433
000290 e2 55 4c be 17 16 c0 bd 8c 02 10 be b3 b8 70 bd
       -0.19954637 -0.09379213 -0.14063472 -0.058769893
0002a0 1c ce 13 bd 4f a5 47 bd 32 b4 56 3c 80 ca ef bd
       -0.036085233 -0.048741635 0.013104485 -0.11708546
0002b0 c4 83 92 bc 36 f0 a3 bd f1 27 45 bd b3 2d 47 bd
       -0.017885096 -0.08004801 -0.048133794 -0.048627567
0002c0 9a b5 81 bd bf db 9e bd 1b 42 43 bd c1 47 20 bd
       -0.06333466 -0.07756757 -0.047670465 -0.03913093
0002d0 db b7 2e bc a4 c7 2c be a7 c2 0d 3d 4f dd c6 bc
       -0.010663952 -0.16873032 0.034609463 -0.02427545
0002e0 0a 8b 6c bd ba c3 79 3d 5c 57 21 be 38 2d a0 bd
       -0.057749785 0.060977675 -0.15755981 -0.07821125
0002f0 bb f3 5a be 25 f7 2a bd 8a 26 dd bd ce 06 3c bd
       -0.21382038 -0.0417396 -0.10798366 -0.045904927
000300 3c f0 10 be 24 ed a1 bd 07 8f 6d bd 04 57 dc bc
       -0.14154142 -0.07906559 -0.05799773 -0.026896961
000310 c3 85 34 be c6 b4 5a bd 58 f8 70 bd a2 00 7b bd
       -0.17629151 -0.053395055 -0.05883059 -0.0612799
000320 f9 91 bf bd b8 7a fb 3c 90 26 3c be cd 25 a1 bd
       -0.09354014 0.030698165 -0.18374085 -0.07868538
000330 31 9d aa bd 2a d3 e7 bd cb 74 96 be b8 37 6e bd
       -0.08330763 -0.11319573 -0.2938598 -0.058158606
000340 51 0f 0b bd 93 f3 19 be 60 9e 51 3c d2 62 c6 bd
       -0.033950154 -0.15034322 0.012794107 -0.09686817
000350 ab 43 5f bd 47 60 06 be b3 de 0e bd bc e0 69 bd
       -0.054507893 -0.13122664 -0.03488035 -0.05709909
000360 3a 5f d8 bd b9 e2 dd bb 0f f1 59 bd b1 18 63 3c
       -0.10565038 -0.006771412 -0.053208407 0.013860867
000370 e9 6d 07 be 5f 59 c6 3c 7f bc 66 bd 12 02 89 bd
       -0.13225521 0.024212537 -0.056332108 -0.06689848
000380 e0 9c 94 3d dd 8c d4 bd 38 b7 c7 bd 00 37 94 bd
       0.07256484 -0.1037843 -0.09751743 -0.07237053
000390 03 19 2b bc 3d c6 fa bd e9 4c b0 bd 3c 4b 98 bd
       -0.010442975 -0.12244842 -0.086084194 -0.07436225
0003a0 ee a9 80 bd e9 1d 11 be f0 dc cb bd b5 5c 3f be
       -0.062824115 -0.14171566 -0.0995425 -0.18687709
0003b0 07 0c 68 bb 23 20 88 3b 94 8d 89 be 26 ac a7 bd
       -0.003540756 0.0041542216 -0.26865828 -0.081871316
0003c0 05 7c c8 bd b7 83 94 bd c4 c1 02 be 64 00 80 be
       -0.0978928 -0.07251685 -0.12769228 -0.25000298
0003d0 6a e9 da bd cf 0f d7 bd 82 f6 5e bd 2a c8 0d bd
       -0.106890514 -0.10501062 -0.054434307 -0.03461472
0003e0 dc 15 03 bc 16 a7 8f bd 04 92 43 3c 66 dc 6b bd
       -0.008000817 -0.07014291 0.011936668 -0.057583235
0003f0 6a e7 4e bd ce d2 56 be a0 9c 1d bd 5b 2f 1a 3c
       -0.050513662 -0.20978853 -0.038479447 0.0094107045

weight f4 [128, 256]
000000 32 9b af bc eb 89 11 bc 53 10 d0 3d 81 42 e4 3c
       -0.021436308 -0.00888298 0.101593636 0.027863743
000010 bd a2 85 bd cc ee 5a 3d 11 2d 97 bd 4e 71 6b 3d
       -0.065251805 0.05345039 -0.073816426 0.057481103
000020 c2 9e 2d bd be 1b 10 bb 04 23 c1 bc 4c c6 3d 3d
       -0.04238773 -0.0021989192 -0.023576267 0.04633169
000030 2f 19 81 3d 62 4c eb bc 23 31 56 bd 7c 9f 18 be
       0.063036315 -0.028722946 -0.052292954 -0.14904588
000040 ec 6f 4b bd c8 76 08 be 90 c8 3a bd b4 d0 e1 3d
       -0.049667284 -0.13326561 -0.045601428 0.11026135
000050 6f e5 f6 3c af bb b6 bd 2a 05 c6 3d 1c 40 3e 3b
       0.0301387 -0.089225166 0.09668954 0.0029029911
000060 54 6e 0e 3c a6 6a c2 3d f2 96 84 3d 64 74 a5 bd
       0.008693296 0.09492998 0.06474103 -0.080788404
000070 dc ff c4 bd 6e da 21 bd 29 95 46 bc a4 0a 40 3c
       -0.09619114 -0.03951495 -0.0121205235 0.011721287
000080 be 32 93 3d 7c 79 29 3d 37 84 c8 3b 9a ff 28 3c
       0.07187413 0.041375622 0.006119277 0.010314846
000090 86 67 3e bc fc 58 26 3d b8 59 1f bd d5 b5 0f 3a
       -0.011621362 0.040612206 -0.03890392 0.0005482112
0000a0 a8 83 82 bd 25 5f 14 3d 87 99 85 3d 10 43 e9 3d
       -0.06372768 0.03622355 0.06523424 0.11389744
0000b0 8d b7 be bd 3d ce f3 bd 20 0e 01 be ed 7a 02 3d
       -0.09312353 -0.11904571 -0.12603045 0.031855512
0000c0 67 dd 2c be 04 f6 16 bd f0 b4 c0 3d 9d d2 ea 3c
       -0.16881333 -0.036855713 0.09409511 0.028664881
0000d0 3b ec 9f bd f3 36 45 bd 51 52 9e 3d 80 51 6e bd
       -0.07808729 -0.048148107 0.07730544 -0.058183193
0000e0 ea 58 1e 3e d1 cf 98 3d 0f 34 94 3d 7e 1b fb 3d
       0.15463606 0.07461513 0.07236492 0.12261103
0000f0 bb 75 91 bb bc df c0 3c 5f a7 cd 3d 65 68 96 bd
       -0.0044390834 0.023544185 0.10041689 -0.073441304
000100 c0 5d 1d 3d b9 f0 05 3d 6c da 50 bb 75 b0 0f 3d
       0.038419485 0.032700274 -0.003186847 0.035080392
000110 21 14 fa 3c 89 b0 8f 3d 02 fd 31 3d d4 19 eb 3d
       0.030527176 0.07016093 0.043454178 0.11479536
000120 8b 17 09 3d 56 a4 7f bd 89 39 d5 3d a3 97 bf 3d
       0.033469718 -0.062412582 0.104113646 0.09355094
000130 af f2 50 bd a2 07 e4 bc bd 76 49 bb 1a 19 9d bb
       -0.05101269 -0.02783567 -0.003074094 -0.004794252
000140 1c 5d b8 3c 2b 4f 0c bc 6a 22 d6 bc c5 b1 38 bd
       0.022505336 -0.008563797 -0.026139457 -0.04509141
000150 3c 50 c2 bd 74 19 42 3d 2b 5e d7 3d 74 99 c6 bd
       -0.0948796 0.047387555 0.10516008 -0.096972376
000160 ae 46 98 3d 8c a9 db 3b 2d 39 05 3e 44 b4 a5 bd
       0.07435356 0.006703561 0.13010092 -0.080910236
000170 e6 d5 e7 bb f6 11 2a 3e 24 6f fe bc ea ba 5e bd
       -0.007075059 0.16608414 -0.031058855 -0.054377474
000180 d1 a4 6e bd 09 dc be bc 67 be e1 bd 49 05 f6 3d
       -0.05826265 -0.02329828 -0.110226445 0.12012727
000190 61 ce 84 3d 75 06 86 bd 95 59 1d be f5 f5 d3 bd
       0.06484676 -0.065442 -0.15366204 -0.10349647
0001a0 bc d5 72 bd 6e cb 26 3d ac f9 f9 3b dd 56 00 3e
       -0.059285864 0.04072135 0.00762864 0.12533136
0001b0 bf 3b ae 3c e7 5a 10 3d d8 8e ee bd 06 06 af bb
       0.021268724 0.03524294 -0.11648339 -0.005341294
0001c0 c2 82 0e be 2e 33 0d bd 5d 35 49 bd 6e 8e 59 3d
       -0.13917068 -0.034472637 -0.049123157 0.053114347
0001d0 7f 7b b0 bd dd 1f 82 3d 5e ab 61 3d 9f c9 96 bd
       -0.08617305 0.06353734 0.05509507 -0.07362675
0001e0 e7 d4 80 3d be 85 79 3c 33 d0 1f bd 7b 53 09 3d
       0.06290608 0.0152296405 -0.039016914 0.03352688
0001f0 f0 b9 3f 3d 1e 57 44 bd ff b2 32 3d f2 48 96 3d
       0.046808183 -0.047934644 0.043627735 0.07338132
000200 64 d1 a7 3d af d6 3a bc 79 29 89 bd eb f4 dc bd
       0.08194235 -0.011403724 -0.066973634 -0.10788902
000210 8f 54 5c 3d 91 61 a2 bc 59 d5 d1 bd 10 65 f1 bc
       0.05379158 -0.019821914 -0.10245771 -0.029467136
000220 3c a3 9c bd f7 a2 08 bd a4 1d a7 bd 15 b2 c8 3c
       -0.07648322 -0.03335854 -0.081599504 0.024498979
000230 35 fb e6 3c d2 95 c7 bd 31 cc a4 bd c8 98 0e bc
       0.028195957 -0.09745373 -0.08046759 -0.008703418
000240 5b 2b 97 3d e5 62 24 3c 66 76 04 be 8b fa 56 3c
       0.07381316 0.010033344 -0.1293579 0.013121258
000250 9e 71 44 3e 74 43 58 3e d2 5f 8a 3c 37 71 33 be
       0.19183967 0.21119481 0.016891394 -0.17523657
000260 22 fb 08 3e 62 38 fd bc c1 66 ca bd c4 2b 38 bc
       0.1337705 -0.030910674 -0.0988288 -0.011240903
000270 1b bf 93 bd d7 94 f9 3c 6d ef a0 3d dc e2 b7 bd
       -0.07214185 0.03046648 0.07858167 -0.08978817
000280 ec ab c7 3d d9 1b a0 3d 4a c6 69 bc bd 94 23 bd
       0.09749588 0.078178115 -0.014268467 -0.03993677
000290 50 13 2d bd 6a a1 1b be 6d de ca bc d1 52 32 bd
       -0.042254746 -0.15198293 -0.024764264 -0.04353601
0002a0 ef 3a 4f 3d e0 7d 0c bd 3d d1 da 3c 7e 8f 26 3b
       0.050593313 -0.03429973 0.0267111 0.0025415118
0002b0 99 c7 ab bd ee 85 25 3d f5 57 b6 3d 38 f7 9d 3d
       -0.083876796 0.04041093 0.08903495 0.07713169
0002c0 e2 44 13 3c 34 0c 9d 3c f0 2b 33 bd db 91 71 3c
       0.008988591 0.019170858 -0.043743074 0.014744247
0002d0 8a cc 1c 3d 39 a2 ee bd 7c ac 46 3d e8 71 c5 bc
       0.038281 -0.11652035 0.048504338 -0.024102166
0002e0 3a 1c d2 3c ea 04 1d be 82 2c a0 bb 89 6e 0e bc
       0.025648225 -0.15333906 -0.0048881182 -0.008693346
0002f0 68 56 5d 3d 6c 6e 81 bc eb 56 4f 3d 7b 34 24 be
       0.05403748 -0.015799724 0.05062 -0.16035645
000300 12 e2 4b bb 23 f7 48 3d d1 05 1d 3d e2 94 3c bd
       -0.003111009 0.049063813 0.038335625 -0.046040423
000310 20 b7 76 3d a1 25 38 3c 2e ff 11 bd 61 6b a3 3c
       0.060233235 0.01123944 -0.03564375 0.019948663
000320 d7 a7 8e 3d ec 52 81 3c f7 74 f0 3d d4 1f 44 bd
       0.06965607 0.01578661 0.11741059 -0.047881916
000330 de 8e e7 bd ca fc 5e 3d 22 46 0f bc d2 7c 58 3d
       -0.11306547 0.054440297 -0.008744748 0.052853413
000340 bd 44 02 3d f4 48 81 3d 9d 37 e3 bc 21 b9 5c bc
       0.031803835 0.06312743 -0.02773648 -0.013471873
000350 dc 05 70 bb c4 67 14 3d 68 ed 53 bd 31 8c b1 bd
       -0.0036624586 0.03623177 -0.05174008 -0.086693175
000360 86 20 48 3d a9 57 b8 bc e2 10 9d 3c de a1 09 3e
       0.04885914 -0.022502737 0.01917309 0.13440654
000370 04 dc ce bd a2 73 f0 bd 0c 06 ad 3c 92 4a 52 bd
       -0.101005584 -0.11740805 0.021121047 -0.051340647
000380 fe b3 c7 bc de c6 3e 3c e0 c9 4f 3c 3d 44 eb bc
       -0.02437782 0.011644093 0.012682408 -0.028719062
000390 a5 c4 52 3d 5f 62 1c be c9 a0 17 3d bc 05 07 be
       0.051457066 -0.152719 0.03701857 -0.13185781
0003a0 c9 c2 7b 3c b7 32 ca 3d d4 39 24 3a 26 55 86 bd
       0.015366265 0.09872954 0.00062647206 -0.065592095
0003b0 fb 07 22 bd c9 22 d8 bd d8 8f 10 3d e9 a4 c4 3d
       -0.039558392 -0.1055351 0.03529343 0.096017666
0003c0 ce 51 54 bd 99 10 dc 3d 8c 31 e7 3d 47 58 46 3d
       -0.051835828 0.10745353 0.11288747 0.04842403
0003d0 bc ec 44 bd 17 c6 f3 bc 75 bf b0 3d ce a5 ea bd
       -0.04807733 -0.029757543 0.086302675 -0.11457406
0003e0 42 db 25 3c 0f 92 14 bd 72 19 84 3d 48 9a 63 3d
       0.010123076 -0.036272105 0.06450166 0.055567056
0003f0 a3 67 9e bd f7 af 96 3d 39 f5 09 be 34 e1 15 be
       -0.07734611 0.073577814 -0.13472451 -0.1463669

bias f4 [128]
000000 d2 1f 52 bd 53 b7 a6 bd 50 65 73 bd f1 e1 ce 3c
       -0.051299877 -0.08140435 -0.05942279 0.025254222
000010 53 20 34 bd 6d bd fd bc 47 ba 8e bd 65 a9 11 be
       -0.04397614 -0.030974114 -0.06969123 -0.14224775
000020 c0 23 d1 bc 22 20 18 bd fb 2c c5 bd f3 eb 66 bd
       -0.025529742 -0.03714002 -0.0962772 -0.056377362
000030 e6 c5 1a bd 1a 38 b7 3b ac 75 c7 bc 9d 7a a5 bd
       -0.037786387 0.0055914046 -0.024348103 -0.08080027
000040 e4 2d 90 bc d7 7d 08 be 3d 26 89 bd b0 2c 5f bc
       -0.017600007 -0.13329254 -0.066967465 -0.013621494
000050 d7 31 32 bc 11 c3 eb bd 33 eb 26 3d 74 ca ad bd
       -0.010876141 -0.11511815 0.040751647 -0.084858805
000060 a2 ce da bd f2 bc e9 bc 5c 05 1b 3c 1e 2f 1f 3d
       -0.10683943 -0.028532479 0.009461727 0.038863294
000070 31 7e be bb 14 20 cc bc 83 e9 bc bc 29 57 8c be
       -0.005813383 -0.02491764 -0.023060566 -0.27410248
000080 6d 1a f7 bb b4 db 93 bd ab 09 cb bc a5 b0 49 bd
       -0.007540992 -0.072196394 -0.024784883 -0.049240727
000090 87 79 43 bd 17 83 1d bd 3a f9 3a bd ff 11 87 bb
       -0.04772332 -0.038455095 -0.045647837 -0.0041220183
0000a0 c9 e2 c4 bd cb a0 61 bd b1 30 8b bd 36 5e 98 bd
       -0.09613568 -0.055084985 -0.067963965 -0.07439844
0000b0 9f 86 be bd 8c 69 e0 bd 01 b7 99 3c 2f 32 01 be
       -0.09303021 -0.109576315 0.01876402 -0.126168
0000c0 c8 0c 0c bd ff dd 48 bd 54 86 07 bd b6 9f 14 bd
       -0.034191877 -0.049039837 -0.03308709 -0.036285125
0000d0 83 fc 88 bb da 4f 26 bc 96 89 41 bc 6f 55 66 bd
       -0.0041804924 -0.010150874 -0.011812588 -0.05623382
0000e0 26 46 51 bc 44 a1 ab bd 85 54 c8 bd 12 63 5f bd
       -0.012773072 -0.08380368 -0.09781746 -0.05453784
0000f0 3b 71 b1 bc d5 14 9e bc a4 4d af bd 8f 07 f0 bd
       -0.021660438 -0.019297043 -0.08559731 -0.11720192
000100 df fd f2 bc 91 12 99 bd 82 e7 c9 3a 95 07 94 bc
       -0.02966207 -0.074742444 0.0015404078 -0.018070022
000110 13 6b 65 3c 52 d4 a7 bc 4e 47 bf bd dc 9f 99 bd
       0.014002579 -0.020486984 -0.09339772 -0.07501194
000120 54 03 f5 bc ff 1d c8 bc 50 15 22 be 7c 03 70 bd
       -0.029908814 -0.024428366 -0.15828443 -0.058597073
000130 fc ee af 3c a2 5b 7a bd 1f 30 f6 bb a7 6e f0 bd
       0.021476261 -0.061122544 -0.0075130607 -0.11739855
000140 0d 02 8e bd 42 2d 96 bc 3e 1d 2a bc 2f 50 4f bb
       -0.06933985 -0.018332127 -0.010382948 -0.0031633487
000150 0d 29 0b bd 05 65 d5 bc 49 74 ba bd 23 ca 33 bd
       -0.033974696 -0.026049146 -0.09104211 -0.043893944
000160 a8 46 10 bd 17 07 01 be e1 a8 c1 bc 1d f5 a5 bd
       -0.035223633 -0.12600361 -0.023640098 -0.08103392
000170 a5 69 22 bd aa 11 33 bd a8 73 57 bd 96 bc 33 3c
       -0.03965153 -0.043718018 -0.052600533 0.010970255
000180 6a ee 05 bd 00 17 11 bc 31 00 f8 bd a5 a7 2f bd
       -0.032698072 -0.008855581 -0.121094115 -0.042884488
000190 8c ca 25 bd 69 ed 59 bd b1 34 94 bd 85 a9 41 bd
       -0.040476367 -0.053204928 -0.072366126 -0.047280807
0001a0 66 ed a5 bd 29 58 5c bd 3b 32 87 be f6 e9 dc 39
       -0.08101921 -0.053795014 -0.2640551 0.00042135984
0001b0 72 e2 0f bd 3d 21 a8 bd 02 a1 44 be 3c 1e d4 bd
       -0.035128064 -0.08209465 -0.19202045 -0.10357329
0001c0 5c 1f 3e bd fe a9 f3 bd a2 9e b7 bc 52 4a aa bd
       -0.046416625 -0.11897658 -0.02241451 -0.08314957
0001d0 2d b0 71 bd 25 cd 55 bd af d2 8c bd 33 e8 6e 3c
       -0.059005905 -0.052197594 -0.06876122 0.014581728
0001e0 0a cf 50 bd 4f 20 f1 bd 62 19 b4 bd a3 00 8c bd
       -0.050978698 -0.117737405 -0.08793904 -0.06836059
0001f0 96 f4 d0 bd 4f e6 48 bc e0 de 21 bd 42 5a 17 bd
       -0.10202901 -0.012261941 -0.03951919 -0.03695131

weight f4 [12, 128]
000000 4c 89 1a bc 46 03 ff bc 16 9c 06 3c 2e bf cb 3c
       -0.009432148 -0.03112949 0.008215925 0.024871435
000010 29 5f ee bc 5c 6f d8 3d 15 b4 9e bd 17 a2 8a bc
       -0.02909811 0.10568115 -0.07749192 -0.016922994
000020 86 cb d8 3d 3e 84 58 bc 51 40 60 3d 7d 2c 58 bc
       0.10585694 -0.013215123 0.054748837 -0.013194201
000030 48 d0 40 3d 29 da 36 bb dc 78 4c bc fd 00 8d 3c
       0.047073632 -0.002790103 -0.012479987 0.017212385
000040 43 bd 3d 3c da be 9a 3d 82 86 2c bd 42 47 bc bc
       0.011580768 0.07555933 -0.042120464 -0.022983197
000050 75 38 50 bc 3f 20 02 3d f1 10 9c 3b 5e c1 9b 39
       -0.012708773 0.031769034 0.0047627618 0.00029707974
000060 92 0d f0 bc 9f eb 02 3d 24 0a 49 bd e4 ce 46 bd
       -0.029303346 0.031962987 -0.049081936 -0.04853715
000070 b5 29 88 bc 1b 0b 8d 3c b6 11 26 b8 f2 2f 14 bd
       -0.01662145 0.01721721 -3.959398e-05 -0.036178537
000080 16 01 47 bc a2 fd 82 bd 9f 11 13 bc 64 d8 25 bd
       -0.012146255 -0.06396033 -0.008976369 -0.04048957
000090 c6 70 47 bc b1 b3 1a bd 87 a1 30 bd a1 f3 3d bb
       -0.012172883 -0.037769023 -0.043122794 -0.0028984325
0000a0 0d 65 c8 3c bd bf 85 3c 7a 54 77 3c 26 98 14 3d
       0.024462247 0.01632678 0.015095824 0.036277913
0000b0 eb c4 7e 3c 4c a9 25 3c 62 07 5a bc e8 16 92 bd
       0.015549879 0.010111164 -0.013307424 -0.07133275
0000c0 16 8c c8 bc a1 2c 1a bd eb 6c c2 bb 41 46 fd bc
       -0.02448086 -0.037640218 -0.005933394 -0.030917289
0000d0 ee 81 c5 b9 0a 5f 4d 3b c3 27 fa 3b b2 07 8b 3d
       -0.00037671573 0.0031337165 0.0076341345 0.06788577
0000e0 6e 38 77 3d b2 b5 18 3d e3 b6 58 bd b5 55 7e bd
       0.06035655 0.037282653 -0.05290879 -0.062093455
0000f0 38 ec 16 3b 61 39 54 bc 29 77 43 bd 15 6f f5 bd
       0.002302898 -0.012953133 -0.04772106 -0.11984078
000100 35 21 6d 3c 93 7e 7d 3d 14 14 c5 bc 24 ec dd 3c
       0.014473249 0.06188829 -0.024057426 0.02709014
000110 89 86 22 3c f1 1d 49 3d 6d 16 1e 3d 9a de 94 3c
       0.009919771 0.04910082 0.038595606 0.018172551
000120 ed 43 80 3c b0 13 02 bd d8 b4 2b 3d eb 9d 62 bd
       0.01565739 -0.031757057 0.041920513 -0.055326384
000130 3c 33 60 bd b3 80 85 3d 92 48 32 ba ff 69 8b bc
       -0.05473636 0.06518688 -0.0006800975 -0.017018316
000140 a9 6d c5 3c 59 df 69 3d 8a db b1 3d 1e d5 8a bd
       0.024100142 0.057097767 0.08684452 -0.0677893
000150 b5 0b a6 bd f3 de 5c 3d 88 00 eb 3b c3 1d 9c bd
       -0.08107702 0.05392356 0.007171694 -0.07622864
000160 a6 63 02 3d e5 68 53 bc 53 6f c9 ba 71 d8 98 bd
       0.031833313 -0.012903427 -0.001536826 -0.07463158
000170 3c cc 31 3d 00 41 c0 3c 60 a1 2c bd b5 7f 47 bc
       0.043407664 0.023468494 -0.042146087 -0.012176444
000180 1c 92 33 3c a2 2b 95 3c 8d f9 bb bd e8 bc 06 3d
       0.010960128 0.018209282 -0.091784574 0.032895
000190 2b 85 72 bc 96 41 a8 3c c5 c0 31 bd c2 b0 73 3d
       -0.0148022575 0.020539086 -0.04339673 0.05949474
0001a0 8b 7d b6 3c c4 b5 26 bb d2 09 a8 3a 80 43 a8 bb
       0.02227666 -0.002543793 0.001282031 -0.0051349998
0001b0 a6 37 2b bd 60 6a dd 3c 02 63 3e bc 68 b0 f6 3c
       -0.041801117 0.027028263 -0.011620285 0.030113414
0001c0 46 30 b6 3d 49 9a 70 bb 08 db 1a 3b 0c af 2d 3d
       0.08895926 -0.0036713055 0.0023629088 0.042403266
0001d0 32 86 1e 3b 92 7d 98 bd 2e 55 77 bd 64 21 35 3c
       0.0024188873 -0.07445826 -0.060383968 0.011055324
0001e0 da 24 c3 bc 94 11 79 bc 8d df 68 bd fe 43 0e b8
       -0.023821283 -0.015201945 -0.05685382 -3.391876e-05
0001f0 dd cb a8 bc 9d ff 4d 3d df a3 cb 3b c5 70 55 3d
       -0.020605022 0.0502926 0.0062146033 0.0521095
000200 ed 3a 56 bd 49 b1 a5 bd 5a e8 4a bd 5d 5b 7d bd
       -0.05230229 -0.08090455 -0.049537994 -0.06185471
000210 d4 3c b5 3d 58 52 6d bd 5e 4c 02 bc de 76 dd bc
       0.08849493 -0.057939857 -0.007952778 -0.02703422
000220 79 04 86 3d 7c 48 33 bc cf 69 09 3d b1 8c 54 3d
       0.06543822 -0.010942575 0.033548173 0.051891986
000230 6f da 05 3d 4e 54 4b bd 5b 2b 44 bd a8 21 53 bc
       0.032679018 -0.049640946 -0.04789291 -0.012886442
000240 e4 08 5e 3d 78 c6 1f 3d ad 82 a0 3c cb f5 fe 3c
       0.054207698 0.039007634 0.019593561 0.031123063
000250 d8 43 61 3c 6a c7 d4 3a 4d 65 34 bb cc aa 39 3d
       0.013749085 0.0016233746 -0.00275262 0.0453289
000260 b3 ec 16 3d 61 f7 9a 3c 12 8b 07 bc 03 23 fe 3c
       0.036846828 0.018916788 -0.008272903 0.031022554
000270 b7 b5 32 3c e1 78 2c 3d 53 aa 68 3d b3 9a f6 bc
       0.010907582 0.042107467 0.05680306 -0.030103063
000280 7e 2c e8 3d 85 99 72 3d c5 10 05 bd a8 39 32 3d
       0.11336611 0.05922844 -0.032486696 0.043512017
000290 96 2d 86 3d 5a 16 83 bc 93 10 08 bd 6d 1e 35 bd
       0.065516636 -0.016001869 -0.03321893 -0.04421847
0002a0 3a 2c 31 3c 72 7f b3 3c d7 8b 60 3d 08 ed 77 bd
       0.010813767 0.021911357 0.05482086 -0.060528785
0002b0 14 77 f8 3c e9 fa 87 bc 0c 5b ff bc 9d 54 32 bc
       0.030330218 -0.016599135 -0.031171344 -0.010884431
0002c0 18 4a 1e bb 4e e2 c6 3c cc 7f 8b 3c 04 fc 3a 3d
       -0.002415305 0.024277832 0.017028712 0.045650497
0002d0 47 3d 47 b9 ad b3 cc 3c 70 d6 62 3d 0a d3 9d bc
       -0.00019000946 0.02498802 0.055380285 -0.01926567
0002e0 63 a2 3f 3d e1 0d 49 3c 1e 92 94 3c 35 e4 88 bd
       0.046785723 0.012271375 0.01813608 -0.06684152
0002f0 a9 ad 23 3c 2e f5 20 ba fc 71 d9 3c f7 76 b0 3d
       0.009990134 -0.000614005 0.02654361 0.08616441
000300 d7 a9 3f bd 3f ba 42 bb 91 f4 e1 3b 6f 0c 9e bd
       -0.04679283 -0.0029713062 0.0068956097 -0.07717215
000310 d9 3d 87 bd 00 15 ed bd 21 ec 6a bc 59 37 8c 3b
       -0.066035934 -0.11576271 -0.014338524 0.004279059
000320 81 0f a8 3c a0 63 96 bd 03 51 a0 bc 89 db 43 3c
       0.020515205 -0.07343221 -0.01956988 0.011954197
000330 1a 06 51 3c 83 81 75 3c 00 10 31 bc 67 95 47 3e
       0.012757802 0.014984491 -0.010807037 0.19490586
000340 02 38 aa 3d b6 55 78 3d b0 78 e2 bd d4 b8 37 bd
       0.08311464 0.060628615 -0.110581756 -0.044854
000350 12 e3 ad bd 41 86 ad 3c cf c3 b7 3d a6 ef fb bc
       -0.08490576 0.021182181 0.089728944 -0.030753922
000360 7a 79 57 bc 9c 4e 9e 3d 90 67 1c 3d 2b dd 38 bb
       -0.013151521 0.07729837 0.038184702 -0.0028207998
000370 ab 8c 8a bc e9 ea d3 3d 21 76 8a 3d 41 5d 3a bc
       -0.016912779 0.1034754 0.067608126 -0.0113747725
000380 ec 9e 92 3c 51 cd b3 bc f6 d7 6b bc d4 9a 93 3d
       0.017898045 -0.021948488 -0.014394751 0.072072655
000390 fa d5 11 bd 50 dd fc 3c 5d e2 24 3c cd fc c5 bc
       -0.035604455 0.030867249 0.010063735 -0.024168396
0003a0 6e f8 75 3d 26 2c 4f bd 7c 10 81 bb c7 70 23 bb
       0.060051374 -0.050579213 -0.0039387327 -0.0024939047
0003b0 ad 72 57 bd 51 99 ea bc c9 2a b1 3a c3 fc 8a bd
       -0.052599598 -0.02863756 0.0013516779 -0.06786492
0003c0 61 ad ee 3b 1f 25 86 3d f2 7d f0 3d 69 75 d6 3b
       0.007283852 0.06550049 0.11742772 0.006544758
0003d0 bb c4 18 bc ca 75 c1 3c 87 0b 14 3d a2 f8 79 bc
       -0.009324248 0.023615737 0.036143806 -0.015257033
0003e0 58 bf 5d 3d 62 06 e8 bc 55 45 54 bd c8 4e 28 3c
       0.054137558 -0.028323356 -0.051823933 0.010272689
0003f0 08 33 8a 3d 45 b9 f7 3c 61 50 b1 3c 7e 30 0d 3b
       0.06748015 0.03023971 0.021644773 0.0021543796

bias f4 [12]
000000 2f 1e 5a 3e aa b4 d5 bd 33 54 7b be 4e 38 f5 3c
       0.21300577 -0.104348496 -0.24543838 0.029934075
000010 a8 f4 19 be 34 81 b0 bd 88 86 a9 bd de 59 7e 3e
       -0.15034735 -0.086183935 -0.08277613 0.24838969
000020 c8 cd 6d 3e c9 aa ee 3c 4c 08 74 3e 05 c3 2f 3d
       0.2322303 0.029134171 0.2383129 0.042910594
